best_rnn.pt (torch, 21010 bytes, 5 tensors)

rnn.weight_ih_l0 f4 [64, 5]
00000000: f0a6 d3bd cf55 7dbe 303c 1ebe 8644 fbbd
00000010: f35d 7b3d 6382 203c 5893 8e3e cbfd 2abd
00000020: 0878 2c3d 755e 7fbd 81b1 a6bd 0567 18be
00000030: 4aa0 a93d e052 b53c bbf9 3abd 95c2 fe3b
00000040: b47b 613e d028 2f3c c76e 903c 01e3 d13c
00000050: 63c4 153e 4c48 7d3e 3480 7abd 7325 1c3d
00000060: 1851 a4bc 9e83 b63d 4ac9 67be a53a 16be
00000070: f829 cf3c 1b82 053d 213e b23d 9744 063e
00000080: 4719 c9bd aea1 953d 5a33 713d c22c 863d
00000090: 81a7 613e 35ef 13bc 7403 88bd b78d 023d
000000a0: 6a54 4abd 0177 6d3e 9776 d33d 1a15 073e
000000b0: 1c71 96bd 9d38 3e3c a6f2 8c3e 80c5 b93d
000000c0: f043 0d3e 1b7c 893d 26dd c23c c34f 2ebe
000000d0: 4595 0b3d 2d30 103e c7ff 96bc 0555 913d
000000e0: acff 16bd 4595 55bd 7db5 04bd 9ea3 6e3d
000000f0: 3369 0dbe 560d 153e 710c 863c 3827 d43b
00000100: 0b86 03bd fbcb 863c 6967 93be 9fc0 86bd
00000110: 681c ad3d 25ce 98bd e8db 893c 67a5 9d3e
00000120: b30e 5e3d ebf8 533d 1382 b9bd fb16 813d
00000130: 7248 923e 82f4 db3d a2c1 6dbd 2638 6a3d
00000140: c54f e6bd 6497 9dbe 69df ae3d a7b2 b6bd
00000150: 89dc d0bc 431e 9abd 151a 8a3d d92d c9bd
00000160: cd20 c6bd ede7 c93d 4d9d 8b3d c2b6 64be
00000170: bc3d d2bd 006a bbbd 2de1 29bd d398 8bbd
00000180: 2cb2 7fbd 2950 ddbc e73a 553d 6eae 9c3c
00000190: a729 2d3d fe8f 493e 786a 113e 70ab 89bd
000001a0: 65e9 753d ca0a 79bd 39a9 6f3e 089f a0bc
000001b0: 1caf 8fbd 9301 fe3d a915 0abd 6402 173e
000001c0: 6392 d63b 1c41 a33d 694b f23d 3347 b33d
000001d0: f0bd 283d bbbd f23b 2d43 52bc a5a5 153e
000001e0: 3e33 903d b5a8 35bd e7d1 b13d 432c b3bd
000001f0: b269 ab3d 3139 633d e0e0 46be 030d 44bd
00000200: ed8f d43d 5f8a 723d 1d81 0a3e da09 0a3e
00000210: cbbb 95bc dc1e 663c 8902 70bd 327b 4f3d
00000220: 10bd 113e b072 113d f82e e93d c8c3 75bd
00000230: d8bd 1fbd de58 343d fde9 cebd 2797 b03d
00000240: 4f36 893d 8c2b 50bd d9b6 7fbe 93f3 073e
00000250: 048a 013e 3699 883d 4394 3fbd 50b6 2f3e
00000260: 8557 023e 3ba8 123d c243 ad3d afb1 393d
00000270: 90d4 323e dbf5 023e 7fe2 4cbc c864 ccbd
00000280: a68d 043e 5fd7 543e f06f 9c3d 4fe0 373d
00000290: afb2 58bd abaf 6a3b bf3f 60be 7347 3bbd
000002a0: fc8f 1dbd e6a6 5dbd acbc d53c 016b 933e
000002b0: 64e3 d63d 2a01 a1bd 08bf c03c 0ac6 06be
000002c0: 20f6 2bbe e409 9a3d 1b76 78bd 2947 24bd
000002d0: 00c6 d33d 33b4 5ebe b658 c73d 25a9 843d
000002e0: 8a6b 59bd f154 fa3c 9062 64be 7e76 a1bd
000002f0: fc01 98bd 03cb d03d 4c38 f63d 8273 443e
00000300: 4686 0b3e 492d d93d c316 09bc 6f19 95bd
00000310: d151 e6bb e451 22bd f8fe 933b 1549 a83c
00000320: 3c56 c53a f155 883e 5bc9 1f3b 15fa 53bd
00000330: a5da df3d 0e9f fcbc 618f 3e3c e6ba 45bd
00000340: dd22 fcbd ebf1 f4bd bb56 bd3d a779 e23d
00000350: ec4c a93d 8a63 b7bd 6558 8dbd f959 043e
00000360: a311 7c3e bbb4 37bc c10b e9bc 788e eabd
00000370: ff51 a0bd ad48 803e e54e 093b 5aea 79bd
00000380: d4b4 d43d 2638 1fbd 111e 96be ddfb d9bd
00000390: 63b5 cbbd 4448 893d 0c83 c13d f37b 92be
000003a0: 8257 863b fd62 db3d d825 7bbd 2c35 6cbd
000003b0: 2861 803d 0951 e03d 7806 1dbb f016 69bd
000003c0: 95b9 f93d cc69 9c3e 7584 bdbc aa01 1dbd
000003d0: 56c4 dd3d 4872 c0bd e999 67be 84a2 133d
000003e0: 9eba ffbd 09e8 63bd 59f4 46bd fc11 763e
000003f0: 87ed 92bc 2615 483d cdbd aebd 10c7 bf3d
-0.10334575 -0.24739765 -0.15452647 -0.12268929 0.061368894 0.009796712 0.2784679 -0.041745942
0.04210666 -0.06234594 -0.08139325 -0.14883049 0.08282526 0.022134244 -0.045648318 0.007774661
0.22019845 0.010690883 0.017630948 0.02562094 0.14625697 0.2473461 -0.06115742 0.03812165
-0.0200582 0.08911823 -0.2263538 -0.14670809 0.025288567 0.03259478 0.087032564 0.13112102
-0.098192744 0.073062286 0.058886863 0.065515056 0.22036554 -0.009029199 -0.06641284 0.03187343
-0.04939691 0.23189928 0.103253536 0.13191643 -0.07345793 0.011610177 0.27528876 0.09070873
0.13795447 0.06713124 0.023787092 -0.17022614 0.0340779 0.14080878 -0.018432511 0.07096294
-0.03686492 -0.052144308 -0.032399643 0.058261506 -0.13809662 0.14555869 0.016363354 0.006474402
-0.032110255 0.016454687 -0.28789833 -0.06579708 0.08452684 -0.07461194 0.016828492 0.30790254
0.054213237 0.05175106 -0.09058013 0.06303211 0.28570896 0.107399955 -0.05804599 0.057182454
-0.112456836 -0.30779564 0.08538706 -0.08920794 -0.025495784 -0.07525303 0.06743256 -0.09823198
-0.09674225 0.098586895 0.06817112 -0.22335342 -0.10265681 -0.09151077 -0.04147451 -0.06816258
-0.062425777 -0.027015762 0.052058127 0.019126143 0.04227605 0.19683835 0.14200771 -0.06722152
0.060037035 -0.060801305 0.23404397 -0.019607082 -0.07015821 0.12402644 -0.033712063 0.14747006
0.0065482124 0.07971403 0.118307896 0.087538145 0.041196764 0.0074078715 -0.012833399 0.1461397
0.07041024 -0.044350345 0.08682614 -0.08748677 0.08369769 0.055474464 -0.1942172 -0.04786397
0.10379014 0.059213992 0.13525815 0.1348032 -0.018278023 0.014045443 -0.058596168 0.050654598
0.14232278 0.035509765 0.11385912 -0.060001165 -0.03899941 0.044030063 -0.101032235 0.0862258
0.06699812 -0.05082278 -0.24972095 0.1327651 0.12650305 0.06669848 -0.046772253 0.1715939
0.12728699 0.03580497 0.084601894 0.045335468 0.17463899 0.12789099 -0.012505173 -0.0998016
0.1294466 0.20785283 0.07638538 0.04489165 -0.05290478 0.0035810273 -0.21899317 -0.045722436
-0.038467392 -0.054114245 0.026090942 0.28792575 0.1049259 -0.0786155 0.02352859 -0.13161483
-0.16793108 0.07521418 -0.06065951 -0.040106926 0.103405 -0.21748428 0.09733717 0.06477574
-0.053081073 0.030558081 -0.22303224 -0.07883929 -0.074222535 0.101949714 0.120224565 0.19184688
0.1362544 0.106043406 -0.008367243 -0.07280242 -0.0070287962 -0.03962888 0.0045164786 0.02054266
0.0015055607 0.26628068 0.0024381492 -0.05175217 0.10930375 -0.030837562 0.011630864 -0.048273943
-0.12311337 -0.11960205 0.09245058 0.110583596 0.08266625 -0.089545324 -0.069016255 0.12924947
0.24616103 -0.011212523 -0.028447988 -0.11452955 -0.078281395 0.25055447 0.0020951566 -0.06101451
0.10386053 -0.038871907 -0.29319814 -0.10643742 -0.09946706 0.06703237 0.09448823 -0.2861019
0.004099787 0.1071224 -0.061315387 -0.057667896 0.06268531 0.10952956 -0.0023960155 -0.05690664
0.121936 0.30549467 -0.02313445 -0.038331665 0.10828464 -0.093967974 -0.22617306 0.03604366
-0.12486766 -0.055641208 -0.04857287 0.24030298 -0.017935527 0.048848294 -0.085322954 0.0936414

rnn.weight_hh_l0 f4 [64, 64]
00000000: c1a5 ab3d cfc7 033e 86d4 8ebd 3da8 c83d
00000010: 2528 8d3b 8544 ccbd ed67 bdbc d23f 353d
00000020: 6cf4 9cbd 3d0d 463c 355b 98bd 62a1 a33d
00000030: 6349 d13b ac48 933c cd24 15bd 5a1a 16bd
00000040: 611b 353d 2406 bc3d bc77 9dbd 718f 46bb
00000050: 7a87 a7bd 2768 bb3d 6809 2cbd ad07 a1bc
00000060: 659e 93bc 4bb9 1f3d 8a46 b03d 9910 223d
00000070: 5996 0b3d 0367 0cbc 4384 46bc 7729 74bd
00000080: aa54 73bd 06ba 243c df08 f5bd b9fe 68bd
00000090: c222 323d e820 673d f710 1e3d a909 3dbc
000000a0: e6be 213e a788 ee3d a8ea 68bd 7a2b fe3d
000000b0: 485b d5bd f30e 5dbd 3f13 13be 57c3 02be
000000c0: c7e3 1bbd 9e4b a4b8 5daa 913d 2d6e d73b
000000d0: cdce 30be 6b96 593c 47eb 79bd d24c 2f3d
000000e0: 6914 b53d b405 a23d 80d8 1e3e 5894 c9bd
000000f0: bb0d d4bd efbf a33d 535b 20bd eb92 b73c
00000100: 9ab7 bcbd 8ba2 bc3d ba71 06bd e821 863d
00000110: 612b 013d 8656 363d 086b edbd 30a6 c6bc
00000120: 1a54 503c 6dfe 61bd b97b 3b3d cac4 753c
00000130: 8f49 8f3b 045f 3b3d 4c15 65bd abfd afbd
00000140: 02b8 8e3d 5cb2 e9bc de52 233d adf1 ad3c
00000150: 6e41 a83c eda5 07be b974 1bbd c4e3 1a3e
00000160: f6c3 a6bd 3653 2cbe ec81 cabc 239c f7bd
00000170: d65a 7bbd 1357 98bd 0e0c d53d eaf2 97bc
00000180: e7f3 c9bb af43 e23c d936 d8bc 98dd b63d
00000190: 2f2d 023d bf53 a13d 6856 a93d f87b 3f3d
000001a0: 1625 013d 2719 0b3e 2fd7 bfbd 2805 47bd
000001b0: 08fa 243d bd08 a73d 5043 05be f3a9 3dbd
000001c0: be97 743d c9cb 8f3c d734 eebd 56c4 98bd
000001d0: 14a7 7f3d 8e2c 6cbd 9f1b 553d 960a bebd
000001e0: a562 68bd 5a8f f53c eb06 053d 709b bfbd
000001f0: dd8d e1bc cc6a a73d 1d7c c2bd ede7 563d
00000200: 7a23 8a3d 9960 043d 061e dc3d 0979 5f3c
00000210: a14d 02be 9435 c43d 5d2a fbbd 5786 0ebc
00000220: 6709 c83c 83b5 a7bd b017 80bb 7c20 c63d
00000230: fc1a ce3d 94fc a8bd 05ab a7bd 3254 073d
00000240: c3cc 7ebc 8aca 80bc 5745 0a3e b179 03bc
00000250: f9af 9fbd 1f6e 8cbc 1807 4c3d 8548 e5bd
00000260: 8cac 033d afec 08be 99dc b33b 968d 15be
00000270: b0f1 fa3d bda3 b2bc 1ffa 8ebd 6b22 ae3d
00000280: d5ed efbd 9e9a b3bd 4933 2fbd c882 8dbd
00000290: 42a1 4c3d 41cf 96bd 0bc5 04bd 07ec f1bb
000002a0: 3f37 b33c df56 1d3e c940 f8bd 0cb2 36bd
000002b0: d44c c3bd cf84 833d 4d64 21be 35cc d03d
000002c0: df6b ad3d 3d80 bcbc 5178 2cbd 41e4 493d
000002d0: cb96 0fbe 6ae9 c1bd 4a5f aa3d 1a9c afbc
000002e0: d2bc 2b3d 9421 033d 1926 db3d 5199 b4bd
000002f0: 62e7 90bc b4af bf3d b86a 58bd 4100 90bd
00000300: 2ace 463d 151f bebc f3e1 97bd 18bd b4bc
00000310: 2069 84bd 32b2 da3d 4665 c83d c31d b3bc
00000320: 1bdd 74bd c183 c73c 8f31 8ebd 45e1 97bd
00000330: 0b30 47bd d296 e4bd 27a4 04bc d2b7 e53c
00000340: 6a1e 5bbd a312 9c3d ccec fd3c 9f1f 5bbd
00000350: a9ba 2ebd a48f e63c c0c0 ae3d 26db bcbc
00000360: 12e5 dabc d2ba ba3d 499b a53d 71f8 33bc
00000370: 9ae4 a8bd 5b74 e03d 2009 8a3d 1c31 b43b
00000380: 3a8b 8ebd 28c1 af3d 0322 3a3d 45ce 4dbd
00000390: 85ff a23d 5bc0 f6bd 3ae6 303d 139a 003e
000003a0: a56a b83a 12ea 213d a357 193e ad79 92bd
000003b0: 1a53 233c 9fc1 b9bd a97b 393e eef0 b7bd
000003c0: 1074 e1bd 4ac4 1abe 0758 2c3d 9a83 1b3e
000003d0: 4808 bb3b b89b a53d a8ba 4a3d 2238 243e
000003e0: 0c28 57bd 86a5 39bc a280 993d eab5 ad3c
000003f0: 0a0b 87bd c732 c63d 7ce6 843d 0e57 41bd
0.083812244 0.1286919 -0.069741294 0.09797714 0.004307764 -0.099740066 -0.023120845 0.044250317
-0.07663807 0.012088117 -0.07439271 0.07989766 0.006386922 0.017978989 -0.03641205 -0.036646225
0.044215564 0.09180859 -0.07688853 -0.00302979 -0.08180137 0.09150725 -0.042001158 -0.01965698
-0.018019864 0.03899507 0.08607204 0.03956661 0.03407893 -0.008569482 -0.012116495 -0.059609856
-0.059406914 0.010054117 -0.11964583 -0.056883547 0.04349018 0.056427866 0.038590398 -0.011537948
0.15795478 0.11647158 -0.05686441 0.12410636 -0.10417801 -0.053969335 -0.1436281 -0.12769829
-0.038059022 -7.834214e-05 0.07112572 0.0065744133 -0.17266388 0.013280491 -0.061015394 0.04279787
0.088417836 0.07911244 0.15512276 -0.098427474 -0.103541814 0.07995593 -0.039149594 0.022408923
-0.09214707 0.0921069 -0.0328233 0.06549436 0.03153551 0.04451611 -0.1159268 -0.024249166
0.012715364 -0.05517428 0.045772288 0.015000531 0.0043727825 0.04574491 -0.055928513 -0.08593305
0.069686905 -0.028527431 0.03987395 0.021233404 0.020539012 -0.1324689 -0.037953112 0.15125948
-0.08142845 -0.16828617 -0.024720155 -0.120903276 -0.061365925 -0.07438483 0.1040269 -0.018548448
-0.0061631086 0.027620165 -0.02639334 0.089289844 0.03178137 0.078773014 0.08268434 0.046749085
0.03152951 0.13583814 -0.09367215 -0.0485889 0.04027751 0.081559636 -0.13013959 -0.046304654
0.059715025 0.017553227 -0.11631172 -0.07459323 0.062415197 -0.05765968 0.052028295 -0.09279363
-0.0567347 0.029975582 0.0324773 -0.09355819 -0.027533466 0.08174667 -0.09496329 0.052467275
0.06745048 0.032318685 0.10747914 0.013639697 -0.12724926 0.09580532 -0.122639395 -0.008699021
0.024418546 -0.081889175 -0.003909074 0.09674165 0.100637406 -0.082513005 -0.08186916 0.03303928
-0.015551749 -0.015721578 0.13503014 -0.008024619 -0.07797236 -0.017142354 0.049811453 -0.11195473
0.032146975 -0.13371538 0.005488944 -0.14604792 0.122531295 -0.021806592 -0.069813006 0.085026585
-0.11715285 -0.08769725 -0.04277352 -0.0690971 0.049958475 -0.07363749 -0.032414477 -0.007382873
0.02187693 0.1536517 -0.12121732 -0.044603392 -0.09536138 0.064218156 -0.15760918 0.101951994
0.084678404 -0.023010368 -0.04210693 0.049289946 -0.14022367 -0.09468348 0.08318956 -0.02143674
0.04192812 0.032014444 0.10700626 -0.08818305 -0.017688457 0.093596846 -0.05283615 -0.070312984
0.048536457 -0.02320818 -0.07416143 -0.022062823 -0.064653635 0.10678519 0.097849414 -0.021864777
-0.059781175 0.024354817 -0.06943046 -0.07416014 -0.0486298 -0.11161579 -0.008095778 0.028041754
-0.053495802 0.07620742 0.030996703 -0.053496953 -0.04265848 0.028144665 0.08532858 -0.023053717
-0.026720557 0.091176644 0.08086259 -0.010984526 -0.08246727 0.10959693 0.06740022 0.0054990184
-0.06960149 0.085817635 0.045442592 -0.050245542 0.07958893 -0.12048408 0.04318831 0.12558775
0.0014069868 0.039529867 0.14974837 -0.07152114 0.009968543 -0.090701334 0.18113579 -0.089815006
-0.11008465 -0.15113941 0.042076137 0.15186921 0.0057077743 0.080863416 0.049494416 0.16037038
-0.052528426 -0.011330968 0.07495238 0.021204907 -0.065939024 0.09677654 0.06489274 -0.047202162

rnn.bias_ih_l0 f4 [64]
00000000: a214 18be 38a3 873d 39a8 193c 3f7c 333d
00000010: a59b 0a3d be71 10be 1b22 d53d 3b0b 38bc
00000020: ee31 733d d2ea 2e3b 2d4b ad3d 6bce ff3d
00000030: 1c73 39bd e267 8cbd b06b 093e 6c00 dd3d
00000040: 0a85 22be 2b02 9bbd 490f c93d 2264 19be
00000050: 1ee0 853d 23ca d33d 4571 85bd d7fe c4bd
00000060: 1d53 f2bd 1ed4 a5bd c700 47bd 4d8d 233d
00000070: 3341 9fbc 0b29 af3d bf1b b7bd c92b 293c
00000080: 4ea6 1f3d 7d4e 24be 8036 8c3d 1264 8f3c
00000090: c452 26bd 957b 483d 8d01 293e de5b 003e
000000a0: 3821 b63d 3525 cebd 624c 043e b5ae 413d
000000b0: 5de8 063e aa4f 163c 8d66 66bd 3e50 233c
000000c0: 8729 393c 2341 8ebd 2d6b 773d 6c20 c53d
000000d0: 846a 99bd 1e68 d63d 6327 b13d b86d 8dbd
000000e0: 0b33 95bd a1e0 6dbc db71 13be 9978 913d
000000f0: 136f c33d ccd9 96bb e5cf 9dbd 6fb1 18bd
-0.14851621 0.066229284 0.009378486 0.043819662 0.03383984 -0.14105889 0.10406896 -0.011233146
0.05937379 0.0026690257 0.08461604 0.12490543 -0.045275792 -0.068557516 0.13419986 0.10791096
-0.15871063 -0.07568773 0.098173685 -0.14979604 0.065368876 0.10341289 -0.06515745 -0.09618919
-0.11832259 -0.08097099 -0.048584726 0.039929677 -0.01944027 0.0855275 -0.08940839 0.010325381
0.03897696 -0.16045566 0.068463326 0.017503772 -0.040606275 0.048945982 0.16504498 0.12535045
0.08893055 -0.100656904 0.12919763 0.047285754 0.13174577 0.009174267 -0.056250144 0.009967862
0.011301405 -0.069460176 0.060404945 0.096253246 -0.07491019 0.104690775 0.086500905 -0.06905693
-0.07285126 -0.014518888 -0.14398901 0.0710308 0.0954267 -0.0046036 -0.07705668 -0.03727859

rnn.bias_hh_l0 f4 [64]
00000000: e948 a2bd cb61 7dbc 7b31 97bd f583 313d
00000010: 479e d83d d2ae 853d f1f5 6a3d 8a13 113e
00000020: 4758 c33d a45c 1a3e ae8c 203e 146e 183d
00000030: 46c1 443c f19d e1bd 1cb1 0e3e addc 983c
00000040: 94a6 cfbc 85df 043e 024c 12bc 68e2 4b3c
00000050: 2e23 b0bb 2a53 763d 390e 133e 35b2 3b3c
00000060: d940 c73d fa56 e43d c707 133e 74cd 78bc
00000070: 462c 4abc 1f4f 8fbd 6a7d fd3d 09f0 b23d
00000080: 299f 59bc 4986 b0bd 2465 d33d 51be 14be
00000090: 85ac 4cbd 3f22 9fbd 8c75 5ebd 86b3 cf3c
000000a0: 9e98 aabd 1e06 dfbc b2c3 4d3d f191 393d
000000b0: 94e3 103c 5714 04be c0b9 bf3d 53e6 c03d
000000c0: f2be a03d c1ff 023d 99de 713d 9e3a 7fbd
000000d0: 8175 c239 a313 d03d 93b8 78bb 78b7 6fbd
000000e0: 5761 273d ee69 873d a132 0abe d958 3fbd
000000f0: 5a83 d93d d8e0 ef3c f6b3 093e dbe0 0dbd
-0.07924063 -0.01546521 -0.073824845 0.043338735 0.10577064 0.06527485 0.057363454 0.1416761
0.09538322 0.15074402 0.15678665 0.037214354 0.012008971 -0.11016453 0.1393475 0.018659914
-0.025347985 0.12975891 -0.0089292545 0.012444116 -0.0053752875 0.060137905 0.14360894 0.011456062
0.097291656 0.11149402 0.14358436 -0.015185703 -0.012339657 -0.06997513 0.123774365 0.08737189
-0.013282576 -0.08619363 0.103220254 -0.14525725 -0.049969215 -0.07770204 -0.05431132 0.025354158
-0.08329891 -0.027224597 0.050235458 0.045305196 0.008843321 -0.12898384 0.09361601 0.09418931
0.0784892 0.031982187 0.059050176 -0.06231176 0.0003709011 0.101599954 -0.0037951812 -0.05852458
0.040864315 0.06612001 -0.13495876 -0.04671559 0.106207564 0.029282019 0.13447556 -0.034638267

fc.weight f4 [1, 64]
00000000: 19c8 3abe ba79 463e 4275 22be 3d9e 913e
00000010: 017f 703e 5920 84be de9e c23d 9395 4f3e
00000020: f44e 113e 7b13 243e 1980 d3bd 5d02 05bd
00000030: dc45 f53d 62c4 87be 8c51 203e 9978 563e
00000040: ef84 5bbe 279e ad3d 022c 14be a852 edbd
00000050: 908a 813e f461 603e bdae 913e e721 da3d
00000060: 74f5 8dbd 659e 56be 2935 a43d 6283 293e
00000070: 91ec a03d 8106 1bbe 2b42 803e 91e2 953e
00000080: 248a 623e f19f 51be d962 8f3e f1c1 7ebe
00000090: b348 10be f458 68be 4890 3e3e 742d 823d
000000a0: e19b 8d3e 4bfa acbc eaec b83d 734e a33e
000000b0: a78b 8b3e 0330 48be f183 71be 4827 d43d
000000c0: 9f91 793e b8ab 7abe 91b3 0c3e d087 92bd
000000d0: 26d8 55be 0f03 39be 92ca 663e 08ad 1a3e
000000e0: e121 5e3e 688f 88be 18c7 24be b97d 2d3e
000000f0: 48cd 283e 0f8e 9b3d 7a43 7d3e fcf4 99be
-0.18240394 0.19382372 -0.15865043 0.2844104 0.23485948 -0.2580593 0.09502958 0.20271902
0.14190274 0.16023056 -0.10327167 -0.032472957 0.11976215 -0.26517016 0.15656108 0.20944442
-0.21437429 0.08477431 -0.14469913 -0.11588031 0.25301027 0.21912366 0.28453627 0.106509976
-0.06931582 -0.2095886 0.08017952 0.16554025 0.078576215 -0.151392 0.25050482 0.2927442
0.22123009 -0.20471169 0.28005102 -0.2487867 -0.14090233 -0.22690183 0.18609726 0.06356326
0.2765799 -0.021115443 0.09029563 0.3189579 0.27254984 -0.19549565 -0.23585488 0.10359055
0.24371956 -0.24479568 0.13740374 -0.071548104 -0.20883235 -0.18067573 0.22538212 0.15105069
0.21692611 -0.2667191 -0.16091573 0.1694249 0.16484559 0.07595455 0.24732772 -0.3006972
