best_ff.pt (torch, 12616 bytes, 5 tensors)

net.0.weight f4 [64, 6]
00000000: fb12 af3d 0291 38be 8e01 9e3e eff3 453d
00000010: fc1e 17be 2be7 053f 67a0 ecbe 5cc8 c53e
00000020: 64b5 ff3e 443c 7c3e 2a19 7f3c df6c df3e
00000030: f386 363e 7dcc 3c3d c65b a33e a601 7abe
00000040: a28a 1c3e 10f3 df3b ef9a f13d e567 8cbd
00000050: 3756 8f3d 7840 fdbd 067f 38be 0ac5 55be
00000060: ce81 f33d 44cb ccbe b551 b7be 27a6 16bf
00000070: afbc e7be f986 12be 3a12 c63e e448 97bd
00000080: 429e f33e 6928 ce3d 105c 793e 7919 28be
00000090: 23df 33bd ca80 9a3d fa3a db3e e998 d4bd
000000a0: 01de 86bc 1cdb 473c 58f7 21be c69e 0cbe
000000b0: 2a23 133e c616 0cbe 5d16 a73e 3b6b 463e
000000c0: 8f1f 0fbe b4e3 4bbe 3cde cb3e 1f65 9dbe
000000d0: a401 b1be 2e8f bb3e e4c7 53be 48c5 9a3d
000000e0: 8193 ebbe ee2f fc3c 233c 04bf c33b e1bd
000000f0: 110d 42be 4cb8 963d 238e f3be 892f 3abe
00000100: 973e 01be 876d 1dbe 8936 943e e28a 8c3e
00000110: 7266 13bf 3d2e 8abe bf2b 6bbe 4183 eebd
00000120: 5dc8 15be 2d72 593e dc46 d0be 3351 a8be
00000130: 08a2 cbbd 7731 b5be 5a19 69bd 2bd5 6338
00000140: 5713 0e3f 5185 8c3d f79d acbe a8b3 aebe
00000150: 5200 f43e 61e3 373e 6650 d23d ec58 b83e
00000160: de63 5d3e 5240 c3be 375d 993e 2b6d bbbe
00000170: b5d5 e63e bb38 103e 28a0 00bd 32f3 c8be
00000180: 6287 d5be d373 03bc 0573 993e 80b3 e23e
00000190: fa7d 993e 8ab2 e83e 6934 aebd f8ff 33be
000001a0: d534 e73e 2b87 97be d42f 5b3e 26cf 1abf
000001b0: d7be 33be 821d 953e f150 0c3e 3b66 99bd
000001c0: 0240 6dbd 66d8 063f 4654 dabe 38c9 c23e
000001d0: c324 a13e e349 ea3d 3c65 b3be 05d9 563c
000001e0: 46b9 fcbe 26b9 b53e a6df 643c 078e aebe
000001f0: 39f1 cb3d c43a 063d 4602 e83c 5686 5a3e
00000200: 117e a1be 8186 e03e 6dc3 733d 4086 8b3e
00000210: 07b0 f1bd 3d85 3538 06e2 103f e049 c2be
00000220: aaea 313e 9e2a 06bf 111e 06bf de3f 003e
00000230: 70de f6bc b001 aa3e 2ffc db3b d028 193e
00000240: 8652 11bf da1a 6738 c3b6 3e3f 79b6 a8be
00000250: 9f24 7cbe a1d9 c43e 433a 123e 56cf c53d
00000260: 5070 f2be 82af 8fbe 5599 29be 8314 1cbe
00000270: 5745 c4be 6934 04be d033 66be 1656 2ebe
00000280: 4d59 c2be 0842 debe 1fee 1cbe d91d 793e
00000290: 2d16 40bf e9ee 533e b4ab cdbe caf2 86be
000002a0: 9948 50bd fc1e 91bd d6bd fcbe 378d 99be
000002b0: d5b9 aabc a7a5 e9bd 2593 c83e 6f8f 923c
000002c0: ebdb 0a3e f677 773e f268 b23d e0e2 92be
000002d0: 8d54 653b 130f b63d 94f7 e13e 9687 503e
000002e0: 44bc 87be 7bc5 3ebe d943 ae3e 44a0 923e
000002f0: 9c70 56bc f52c c23e cef1 8d3d 4cd4 e33e
00000300: b100 a9be d6fb 8e3e ab21 8ebe f1cf 0cbf
00000310: 2c89 9bbd 49a8 b0be 3124 e7be 5e78 abbe
00000320: fc6a a6be 8a8b 13bf 4bdc 8abe 6231 eb3d
00000330: 4d9a 933e 9db5 de3a 0bfa 803e 1a88 02be
00000340: 1dd0 81be a164 0f3f 2a11 2ebd a6c4 993d
00000350: ef6b 64be b5e8 583e 7d0e f73e 0d53 bd3e
00000360: cf65 5a3e 0025 fcbe aefb c03e 3f3a d43e
00000370: f77d 4f3e cbcc d53e f7a6 8c3e 0947 02be
00000380: 9ad0 59be 02aa 013f cd8e a1bd a245 98be
00000390: d24b 1ebf 42b6 a23d e287 41be 2491 2ebf
000003a0: 178b b2be a338 af3e a7a3 9e3e 76a7 babd
000003b0: 5bda 803d dbda 9ebe 33e9 c53e efaa 023f
000003c0: 2bf7 833e a28e 8a3e e10b 15bf 5d5c 99bd
000003d0: e9e9 27bd 109f c2be b0f4 03bf 0cf9 2638
000003e0: 3615 aa3e 7244 06be d125 a83d ea84 7c3e
000003f0: 12be 9e3e b007 233e 0cfe 083f 9b42 f1be
0.08548542 -0.18024066 0.3086056 0.048328336 -0.14757913 0.5230586 -0.46216127 0.38629425
0.49943078 0.24632365 0.015569964 0.4363775 0.17824917 0.046093453 0.31905955 -0.24414691
0.15287259 0.006834395 0.11797129 -0.06855754 0.06998866 -0.12365812 -0.18017206 -0.20875946
0.11889993 -0.3999883 -0.35804525 -0.5884728 -0.45261142 -0.143093 0.3868578 -0.0738695
0.4758168 0.100663014 0.24351525 -0.16415967 -0.04391397 0.07544096 0.42818433 -0.10380728
-0.016463282 0.012198236 -0.1581701 -0.13732442 0.14368883 -0.13680562 0.3263425 0.19376843
-0.13976882 -0.1991108 0.3981799 -0.30741212 -0.34571564 0.36632675 -0.20681721 0.0755716
-0.46010974 0.030784573 -0.5165426 -0.10997727 -0.18950297 0.073593706 -0.4756938 -0.18182196
-0.12621532 -0.15373813 0.28947857 0.2744971 -0.57578194 -0.26988402 -0.22965907 -0.116461284
-0.14627214 0.21234961 -0.4067906 -0.3287445 -0.099430144 -0.353893 -0.056908943 5.4319546e-05
0.5549826 0.068613656 -0.33714268 -0.34121442 0.47656494 0.17957832 0.10269241 0.36005342
0.21620128 -0.3813501 0.2995393 -0.36606726 0.4508492 0.14084141 -0.031402737 -0.39248043
-0.4170485 -0.00802322 0.29970565 0.44277573 0.29978925 0.45448714 -0.0850609 -0.17578113
0.45157495 -0.29595312 0.21404964 -0.60472333 -0.17553268 0.29124075 0.13702752 -0.07490202
-0.05792237 0.5267395 -0.4264242 0.38044143 0.3147336 0.11439874 -0.35038173 0.013113265
-0.49360102 0.3549282 0.013969338 -0.34092733 0.09958119 0.032770887 0.028321397 0.21340308
-0.31541494 0.43852618 0.059512544 0.27250862 -0.11801153 4.327785e-05 0.56594884 -0.37946987
0.17374673 -0.5240878 -0.5238963 0.12524363 -0.030135363 0.33204412 0.0067134122 0.14956975
-0.56766546 5.50997e-05 0.7449762 -0.32951716 -0.24623345 0.38447288 0.14280038 0.09658687
-0.47351313 -0.2806359 -0.16562398 -0.152422 -0.38334152 -0.12910618 -0.22480702 -0.17025027
-0.37958756 -0.43409753 -0.15325211 0.24327792 -0.7503384 0.20696606 -0.40170062 -0.26357108
-0.050850485 -0.07085988 -0.49363583 -0.2999055 -0.020840565 -0.11408549 0.39174762 0.01789066
0.13560455 0.24166855 0.08711423 -0.28688717 0.0034993023 0.08889594 0.441342 0.20364222
-0.26510823 -0.1863002 0.3403614 0.28637898 -0.013088372 0.37924924 0.06930886 0.44497907
-0.3300834 0.2792651 -0.27760062 -0.55004793 -0.07594523 -0.3450339 -0.451448 -0.3349027
-0.32503498 -0.57634795 -0.27121195 0.114840284 0.2882866 0.0016991381 0.25190768 -0.12747231
-0.2535409 0.5601292 -0.042496838 0.07508211 -0.22306798 0.2118252 0.4825324 0.36977425
0.213279 -0.4924698 0.37692016 0.41450688 0.20262896 0.41757807 0.27471134 -0.1272241
-0.21270981 0.50650036 -0.07888565 -0.29740626 -0.6183444 0.07944919 -0.18899491 -0.68190217
-0.34871742 0.34222898 0.30984232 -0.09113972 0.06291648 -0.31026348 0.3865448 0.51042074
0.25774512 0.27061945 -0.5822125 -0.0748832 -0.04099456 -0.3801198 -0.5154524 3.9809427e-05
0.33219308 -0.13112047 0.08210338 0.24660078 0.31004387 0.15920901 0.53512645 -0.47121128

net.0.bias f4 [64]
00000000: ad05 c0bd c6bd 893e 7be5 ee3e a3fa d4be
00000010: 485c 8d3e 0f24 12be 8636 033f ce18 803e
00000020: 1d9e 0a3f 3d1a 97be d5f3 2fbe 70be 9b3e
00000030: 8511 9d3e 2f79 db3d 9e25 943d fecc 7bbd
00000040: 9cb4 b53e 9ec1 713e a2dc 03be 2deb f83e
00000050: eb8f 3c3e b37a b1bd 575a 99bc a8df e83e
00000060: 2d76 ea3e 4a47 2bbe a05c 683e d8d0 edbc
00000070: 6b8b 21be 1f7a 43be 346e e33e 3f42 d43e
00000080: 2a04 c73d ef66 c63e f523 9c3d 6d0f fd3e
00000090: a67b 85be bbd9 3bbe feb3 99bd e54b bc3e
000000a0: c41b f43e 0da6 a73e e4f0 173e 94a7 c1bd
000000b0: e5bf 1abe b287 ea3e 67f3 b9bd 099f 413e
000000c0: 7078 34be 2d98 033f 232f 1b3e a9ce ab3c
000000d0: 252b 3d3e 46ba c2bb 0de3 ea3e 32c4 223d
000000e0: b942 09be 76c8 8b3e 2546 d83e ab51 7f3e
000000f0: ae4b e03e b950 9cbe 80a3 0e3d 188f 853e
-0.093760826 0.26902598 0.46659455 -0.4159747 0.27609468 -0.14271568 0.5125507 0.25018924
0.5414751 -0.29512206 -0.17182858 0.3041873 0.3067743 0.10716473 0.072337374 -0.061474793
0.35489357 0.23609015 -0.12877133 0.48616925 0.18414275 -0.08665981 -0.018719835 0.45483136
0.45793286 -0.16726413 0.22691584 -0.029030249 -0.1577584 -0.19089554 0.44420016 0.41456792
0.09717591 0.38750407 0.07624046 0.4942583 -0.260709 -0.18344776 -0.07505034 0.36776653
0.47677433 0.32743874 0.14837986 -0.09455791 -0.15112264 0.45806652 -0.090796284 0.18908323
-0.17624068 0.51404077 0.151547 0.020972567 0.1847349 -0.0059426157 0.4587635 0.039737888
-0.13404359 0.27301377 0.42241016 0.24933498 0.4380774 -0.30530336 0.034823895 0.26085734

net.2.weight f4 [32, 64]
00000000: ab26 113e 0f29 bc3d d841 b23b db50 8ebd
00000010: a620 28bd 2b97 333e c5cd 413e db04 293c
00000020: 9b24 5f3e ba2c a6bd d543 0dbe c3db 99bc
00000030: 5f83 32bd 3558 553e 11c2 9c3c 77cd 073d
00000040: e4cc a13d f67b 2e3e fb6e a93d 246b 2e3e
00000050: a2cd 5dba ebd2 6e3d a8f9 913e 6341 8a3d
00000060: 6cc6 653e 74ff 34bd a2f1 48bb d651 04be
00000070: 0f1d 29be 76de 673e 1578 183e 5009 9ebc
00000080: fc1a fc3c 30dd 0e3e 4400 323e fa3a 753d
00000090: 3121 db3d 4c43 2d3e 170e ab3d 7752 4d3d
000000a0: 19fc 03be 251f c53d 35af 123e 91b9 483e
000000b0: 1270 3e3e 244d 7b3d 0f36 523e 2ab7 7c3b
000000c0: 1270 cebd 53b3 0b3e 5f30 6a3d 26dd f93d
000000d0: 7709 453e 8702 ac3d c266 453e f393 6d3d
000000e0: 0b07 513e 275a 0c3e bd16 e33c 352f 53bb
000000f0: dad4 3d3d df10 263e b6ae 883e 83f1 413e
00000100: a868 d83e f4ff b63e fee6 123f bcfb 613e
00000110: c42d 65bd f19b 973e 30d5 e13e aa25 9e3e
00000120: b869 1b3f b94f 8dbe 295e c7be cfcb aabd
00000130: 97e3 1d3c 728e 163f 94bc b43e c127 a43e
00000140: bfcb d43e 6628 eb3e c0ce d13e 6ad0 9f3e
00000150: afff 713e c8c0 e13e 9200 ff3e 91cc 643e
00000160: f089 193f 4d18 9ebe e38e 153e 90e3 c2be
00000170: 04c8 bfbe 0c2c c33e 7fae fb3e 163e b13e
00000180: 0257 333d e32f 1b3d 792b 023f 0731 f93e
00000190: 952f 993e 3815 b23e a8a2 853e fdf2 e13e
000001a0: daef 18bd f988 213f a25f 1a3f 9b14 e23e
000001b0: cef6 e83e f63d ffbd 8e6a 923e b87d 893e
000001c0: a951 57be 4cd7 3c3f a1c5 5e3f 1a7e a43e
000001d0: 854d bc3e 6cff 363f 45e4 2f3f 077c d43e
000001e0: b6e0 b63e b3aa ab3e 1d23 1e3f 3db1 9a3e
000001f0: d344 b33e 2c9d 963e 2cbc 1c3f 38cd 2d3f
00000200: 8a4e 263e 1d05 4e3c 133f 3f3e 7e09 febb
00000210: b63a 59bd 1b92 403e 001f 283e 9048 6b3e
00000220: 83be cb3d 14ea 7ebe 3ed2 46be b67e babd
00000230: da6c 9e3d 34f6 3a3e 2910 963c 0b2b 0b3e
00000240: 7432 3e3e 0931 5f3d bfd5 c73d ce6e 013e
00000250: 7f2c e33c 32d9 493e 3869 773e 1252 293e
00000260: a873 8a3e 46ca e9bd bca6 8d3d dfa5 f3bd
00000270: f64f 5cbe a667 fe3c 4269 423e f5f1 763d
00000280: edb2 6fbb a849 1e3e d470 863d 475c f73c
00000290: a4ea c13d e23e 103e 64ca 443d 8d32 323e
000002a0: 8481 a53d dc6d df3d 5bc3 ec3d 5ae3 523e
000002b0: 11b8 623e ee66 1abd 3129 a43d c5d0 eb3d
000002c0: 9b59 4fbe 6757 163e 6e69 ed3d d8e7 b1bc
000002d0: 2619 253e b521 703e b01e 3b3d c3b2 103e
000002e0: 2d07 9e3d a4c4 823d 7411 303e b227 3e3e
000002f0: 2e4a 033e ea70 603e d89e 233e 6f8d 0a3e
00000300: 027f 3d3e d858 c83c c684 b03d 755e 1abe
00000310: 09bf cbbd d904 d5bc 01cf e03d c7f9 1b3e
00000320: 709b 203e d804 f2bd 4bba 93bd 5a9e 2ebe
00000330: 4b34 513d 02e4 323e 2d64 bf3c 1184 4a3d
00000340: 18b0 1e3e 9e9d 723c 218d 093d a528 c43d
00000350: bd6f b43b 57a8 1d3e f8bc 8e3e 8916 5a3e
00000360: 7957 8d3d 13a9 33be afdb 9d3d dea4 19bc
00000370: b352 84be 5ac0 a43d e462 163d fc73 0b3d
00000380: be11 2dbc be9a 2c3e f1af 6dbd b4fa 193e
00000390: f45a 263e d196 063e 9ccb 463e a184 413e
000003a0: d1dd a43a 458c 0a3e 0ca5 c23d 8de1 bd3d
000003b0: 4598 373e 6635 36bd d903 3b3e 1605 2a3e
000003c0: 01e9 08be eefc 993d 4480 173d cdc3 533d
000003d0: 2d3e 6a3d cac9 4e3e d15f c83d 01ed 6d3d
000003e0: 4686 dc3d 6352 163e 459b 0f3e c8af fa3d
000003f0: bcca 243e 01cd 283e 5f44 633e 6543 6d3e
0.14174907 0.09187519 0.005439978 -0.06949016 -0.04104676 0.17538135 0.18926151 0.010316099
0.21791308 -0.08114 -0.13795407 -0.018781548 -0.043582316 0.2083443 0.019135507 0.03315493
0.07900408 0.17039475 0.08273121 0.17033058 -0.00084611226 0.058306616 0.28510785 0.06750753
0.22438973 -0.04418893 -0.0030661603 -0.12921843 -0.16514991 0.22643456 0.14889558 -0.01929155
0.030774586 0.13951564 0.17382914 0.059870698 0.1069969 0.16920203 0.08352297 0.050127473
-0.12889136 0.09625081 0.14324649 0.19602038 0.18597439 0.061352864 0.20528434 0.0038561323
-0.100799695 0.13642626 0.057175037 0.12200384 0.19241892 0.083989196 0.1927748 0.058002423
0.20412843 0.13706265 0.027720803 -0.0032224183 0.04634557 0.16217373 0.26695794 0.18939786
0.42267346 0.35742152 0.57383716 0.22068685 -0.05595185 0.2961116 0.44107962 0.3088811
0.6070819 -0.27599886 -0.38939026 -0.08339655 0.009636781 0.58811104 0.35300124 0.3206158
0.41561696 0.4592926 0.4097805 0.31213695 0.23632692 0.44092393 0.49805123 0.22343661
0.599761 -0.30877915 0.14605288 -0.3806424 -0.37457287 0.38119543 0.49156567 0.3461768
0.04378415 0.037887465 0.50847584 0.48670217 0.29919115 0.34781814 0.2610066 0.44130698
-0.037338115 0.6309963 0.60302174 0.44156346 0.45500797 -0.1246299 0.2859692 0.26853728
-0.21027245 0.73766017 0.8702031 0.32127458 0.36777893 0.7148349 0.68707687 0.41500875
0.35718316 0.3352867 0.6177233 0.30213347 0.35013446 0.29416788 0.6122463 0.67891264
0.16240898 0.012574461 0.18676405 -0.0077525964 -0.053034507 0.18805735 0.16418076 0.22976899
0.099484466 -0.24893981 -0.19416139 -0.091061994 0.077356055 0.18257982 0.018318253 0.13590638
0.18573934 0.054490123 0.09757566 0.12639925 0.027731178 0.1971176 0.24161232 0.16535214
0.27041364 -0.11415534 0.06916568 -0.11896872 -0.21514878 0.031055283 0.18985465 0.060289342
-0.0036575154 0.15457785 0.06564489 0.030195368 0.09468582 0.14086488 0.048044577 0.17402096
0.08081344 0.10909626 0.115606986 0.2059454 0.22140528 -0.037695818 0.08015669 0.11514429
-0.20249026 0.14681779 0.11592375 -0.021716997 0.16122875 0.23450358 0.045683563 0.14130692
0.077162124 0.063851625 0.17194158 0.1856983 0.12821266 0.21918073 0.15978563 0.13530515
0.18505481 0.024456427 0.086190745 -0.15075095 -0.099485464 -0.026003288 0.10976983 0.15232001
0.15684295 -0.1181733 -0.07213267 -0.17052594 0.05107526 0.1746979 0.023363197 0.049442355
0.15496862 0.014808087 0.033581857 0.09578065 0.0055064843 0.15396248 0.27878547 0.21297659
0.0690145 -0.17544965 0.07707917 -0.009377686 -0.25844344 0.08044501 0.036715403 0.03404616
-0.010563312 0.16855904 -0.05802912 0.15037042 0.16245633 0.1314347 0.19413608 0.1889825
0.0012578313 0.13530071 0.095041364 0.09271536 0.1792918 -0.04448452 0.18263187 0.16603503
-0.13370134 0.07518946 0.036987558 0.051700402 0.0571882 0.20194164 0.097839005 0.058087353
0.10767798 0.14679866 0.14024074 0.12240559 0.16092962 0.16484453 0.2219405 0.2317024

net.2.bias f4 [32]
00000000: fb95 353e 0d94 253e 4f7e 543e 766c f73d
00000010: 85be cb3c e55c 513e 384c 213e c3a5 7a3d
00000020: aa54 c63d 467e db3d 56cd b73b 4c57 c2bd
00000030: 4996 f7ba e596 bd3d 449f 4b3d cb1f 9abb
00000040: d87c ea3d 9978 64bd 5982 28bd 5bc1 f93d
00000050: c63e b6bd 1181 f13d 6edd 603e 0e14 ed3d
00000060: 7bf1 243e 4d35 e5bd e155 9c3c 7492 a0bc
00000070: 55b6 d03d 42b3 ec3d 9c21 553e 9227 2b3e
0.17732994 0.16169758 0.20751308 0.12081234 0.02487112 0.20445593 0.15751731 0.06119324
0.09684117 0.10717444 0.0056091947 -0.09489307 -0.0018889393 0.092572965 0.049712434 -0.004703497
0.11449593 -0.055779073 -0.041139934 0.12195083 -0.08898692 0.117921956 0.21959469 0.11576091
0.16107742 -0.11191807 0.019083919 -0.019601084 0.10191027 0.11557628 0.20813602 0.16714314

net.4.weight f4 [1, 32]
00000000: 0246 893e 5f78 813f 85ed 3d3e f1d7 8e3e
00000010: 6d85 c4be 1f7c 5c3e 1388 8ebe 388d 6a3e
00000020: 0c28 583e 776f a7be 7c49 9abe de41 14be
00000030: f8f7 a3bd ce98 623e 28ea 9dba aa08 9cbe
00000040: 77e1 713e c547 12be c10b c4be bd39 243e
00000050: 0e4d 04bd 95e8 4cbe 5901 9fbe ec3f 723e
00000060: 84f8 463e 72ae 0fbd 7f15 3f3e 460e 8cba
00000070: 2e60 8ebe 3ee8 573e a869 673e 58fe 7f3e
0.26811224 1.0114859 0.18547638 0.27899125 -0.38383046 0.21531723 -0.2783819 0.22905433
0.21109027 -0.32702228 -0.3013419 -0.14478251 -0.08006281 0.22128603 -0.0012047933 -0.3047536
0.23621164 -0.1428519 -0.38290218 0.1603765 -0.032300048 -0.20010598 -0.31055716 0.23657197
0.19430739 -0.035078473 0.18660544 -0.0010685406 -0.27807754 0.21084687 0.22598898 0.24999368
