best_tfm.pt (torch, 279138 bytes, 27 tensors)

proj.weight f4 [64, 5]
000000 90 4a 13 3e 28 60 c8 3d 5c 03 93 3e ed 9b 91 be
       0.14383912 0.09783965 0.287135 -0.28439274
000010 ce e2 ad bd b3 90 80 3d c5 0c 69 3d a8 ff d7 bd
       -0.08490525 0.06277599 0.056896944 -0.105468094
000020 39 88 55 be fb db 2a be f8 7c c4 be 88 dc a8 3c
       -0.20852746 -0.16685478 -0.38376594 0.02061297
000030 63 7a e9 bd 6f e9 ad bd 03 ea 36 3e 95 2f 95 be
       -0.114002965 -0.084917895 0.17862706 -0.29137865
000040 23 f5 1c be c6 c0 ce 3e 37 5d c4 be ee 1f 17 be
       -0.15327887 0.4038145 -0.38352367 -0.14758274
000050 d2 65 92 be 82 03 be 3e 01 b6 16 3e 33 01 a3 be
       -0.28593308 0.3711205 0.14717866 -0.31836852
000060 ac 67 bb 3e d6 1b 67 be c5 a8 c8 bd 5f b9 de be
       0.36602533 -0.22569212 -0.09797815 -0.43500802
000070 88 e8 6e be 32 d5 80 3e 35 84 46 be 4c bd cd 3e
       -0.23330891 0.25162655 -0.1938637 0.40183485
000080 da 49 b4 be f5 5d 21 be d3 2a 97 3e e5 8b 61 3e
       -0.35212594 -0.15758498 0.2952486 0.22026022
000090 82 8c 94 be 60 92 32 3d 6d 16 02 be 5d dc d5 be
       -0.2901345 0.043596625 -0.12703867 -0.41769686
0000a0 97 ef ae be b7 64 d9 3e 4a b4 a6 3e 46 a8 46 3e
       -0.34167168 0.42459652 0.32559425 0.19400129
0000b0 fe 39 74 bd eb 4f d8 be e7 fd 70 3e d4 67 81 3e
       -0.05962562 -0.42248473 0.23534356 0.25274527
0000c0 68 82 b6 be 42 c5 b2 be 81 94 aa 3e c3 06 9f 3e
       -0.35646367 -0.3491612 0.33316424 0.31059846
0000d0 a0 1d b3 3e cd fd 13 3e 9b 60 68 be ca 62 b5 3e
       0.3498354 0.14452286 -0.22693102 0.35426933
0000e0 a5 7f 9e 3e 67 65 2e 3d 96 d1 d9 be 1a 29 00 3e
       0.3095676 0.042577174 -0.42542714 0.12515679
0000f0 01 f1 b7 be 5f c7 eb be 54 35 ee b9 2a 23 8f bd
       -0.3592606 -0.46050546 -0.0004543463 -0.06989129
000100 6f e8 27 be 76 ab 83 be c7 fe c7 be 1b da ca be
       -0.1639726 -0.25716752 -0.39061567 -0.39619526
000110 9d 1d e4 bc 09 e5 79 3e 53 87 65 be 10 68 56 be
       -0.027846152 0.24403776 -0.22414903 -0.20938134
000120 2f dd a3 3e 9b f7 df 3d 0a 01 c4 3e 1a 97 bc be
       0.32004687 0.10935899 0.38282043 -0.3683403
000130 5e 13 65 3e 16 b1 73 be 85 bf 4d 3e 50 15 e0 3e
       0.22370669 -0.23798022 0.2009259 0.4376626
000140 25 90 c4 bc 38 74 8a be ff 76 8b be 07 86 db be
       -0.023994515 -0.27041793 -0.27239224 -0.42875692
000150 5f d0 34 3e 7d a1 c1 be 97 35 39 3e d8 83 66 3d
       0.17657612 -0.37818518 0.18086849 0.05627808
000160 01 2b c0 3e 9c 0e 88 bd 50 73 bf be 6e 95 cb 3e
       0.3753281 -0.066434115 -0.37392664 0.39762443
000170 d9 fe 8d 3e 14 51 cb be d7 fb e6 bd 64 3e 01 3e
       0.27733496 -0.39710295 -0.112785034 0.12621456
000180 9e 19 dc 3d 3a 16 be be e5 38 2d be 31 bb 00 3d
       0.107470736 -0.37126333 -0.16916235 0.03142852
000190 e2 6c d4 3e 75 05 a2 be 04 a3 8a 3e a8 02 79 be
       0.4148932 -0.31644788 0.27077496 -0.2431742
0001a0 29 9c b6 3e 17 6b f5 bc f4 58 95 be e7 c8 b4 3d
       0.35666016 -0.029958291 -0.29169428 0.088273816
0001b0 cf 00 88 be e7 f2 0b 3d ca e7 6e 3d 5b ac 93 3e
       -0.26563117 0.034167197 0.05832652 0.28842434
0001c0 5e 77 de bd a6 65 a2 bd 88 c5 d1 be 38 a2 d4 3d
       -0.10862611 -0.07929544 -0.40971017 0.10382503
0001d0 f9 45 d9 3e e8 3d c4 be 37 00 d4 be 22 eb 99 be
       0.42436197 -0.3832848 -0.41406414 -0.30062205
0001e0 8a f9 9e 3e 1d c8 d4 bd 58 f7 d7 bd fb 5c 00 be
       0.31049758 -0.10389731 -0.10545224 -0.12535469
0001f0 37 fd d7 3e a1 f6 ec bd 69 ca 7c 3e 08 f0 62 3d
       0.42185375 -0.11570478 0.24686588 0.055404693
000200 16 32 31 3e 13 8f 42 be eb 6c fd ba 95 4c bc 3e
       0.17304263 -0.18999891 -0.0019334828 0.36777177
000210 a8 1a 48 be 2d b0 9b be 58 94 ee bd 14 4f c6 bd
       -0.19541419 -0.3040785 -0.11649388 -0.09683052
000220 cf b0 6f 3d 32 d8 89 3c 1e 5b 8c 3e 13 18 59 be
       0.058518227 0.016826723 0.27413267 -0.2120059
000230 23 f4 dc bc fe 82 b7 be 9f 2a 60 3e dc f7 db be
       -0.026971882 -0.35842127 0.21891259 -0.4296254
000240 e9 29 d5 be c8 f4 27 3d f5 49 c1 be 28 a5 2d 3e
       -0.41633537 0.041004926 -0.37751737 0.16957533
000250 2c 64 55 3e f0 9b c2 be b0 6b 8c bd a6 02 06 3e
       0.20838994 -0.38009596 -0.06856477 0.13086948
000260 73 93 b8 bd 14 77 df bc be f1 ba be 93 73 66 be
       -0.09012499 -0.02727846 -0.3651256 -0.22505026
000270 c2 33 a7 3d 96 be 1b 3e de 36 2d 3e ee ff 8f bd
       0.08164169 0.15209422 0.16915461 -0.070312366
000280 2f 17 8f bb c8 cd 72 3e c8 ae b6 bd 03 90 19 be
       -0.0043667774 0.23711312 -0.08920056 -0.14996342
000290 1e 72 36 3e f0 97 84 be 1c 4b 87 be f5 25 0d 3e
       0.1781697 -0.2589717 -0.2642449 0.1378401
0002a0 9a b4 d9 be f5 e3 97 bd 96 2f 11 3e c2 52 ac bd
       -0.425206 -0.07416526 0.14178309 -0.08414222
0002b0 89 cf bb bd c6 ba 56 be aa 75 6b 3e d0 3b ad 3e
       -0.091704436 -0.20969686 0.22994104 0.33834696
0002c0 47 c7 d2 3e d5 70 6a 3e fc 38 3a bd a6 7d 1d 3e
       0.41167662 0.22894605 -0.0454645 0.15379962
0002d0 2b 3c dd 3c 6e 6a 35 3e 54 e4 9d 3e 5d 62 19 be
       0.02700623 0.17716381 0.30838263 -0.14978929
0002e0 ca dc a9 3e 08 27 d9 3d 2d 93 c9 3d 15 9f 28 bc
       0.3317626 0.10603148 0.09842525 -0.010291834
0002f0 ce be a7 be ab 80 65 3e 09 61 5d be 93 fb f6 bd
       -0.3276276 0.22412364 -0.21619047 -0.12059703
000300 ba 7a ba be ce 9d a5 3e 02 2f 69 be ed 89 a7 bd
       -0.36421758 0.32346958 -0.22771838 -0.08180604
000310 83 c0 04 be 6a a2 26 3e db f2 b0 3c 67 0c c7 be
       -0.12964062 0.16272894 0.021600178 -0.3887665
000320 4c 46 2e be 7c 4c 4b bd 4d 4b 63 bc 2c 78 e9 bd
       -0.17019004 -0.049633488 -0.013872934 -0.11399874
000330 7c 16 e1 be f0 42 13 be 9c a8 96 3e a9 03 30 3e
       -0.43962467 -0.14381003 0.29425514 0.17188896
000340 27 db a8 3c 3a ff c1 be 81 a2 49 3e 56 41 c0 3e
       0.020612312 -0.37890035 0.19690897 0.37549847
000350 7c 80 b1 bd 2c 5b 8f 3d fc b4 93 3e b9 92 97 be
       -0.086670846 0.069998115 0.28849018 -0.29604128
000360 4d 2b a9 bd 53 77 8e 3d 38 92 99 be a2 ac bd bd
       -0.08260212 0.06956353 -0.2999437 -0.09261443
000370 87 62 95 bd 3a bd 26 be 24 8b bf be 4a 4c d3 3e
       -0.07294183 -0.16283122 -0.37410843 0.4126914
000380 1b dd 18 be 94 2a cf be 14 ae 34 3e 8f de b6 3e
       -0.14928095 -0.40462172 0.1764453 0.35716674
000390 06 d2 9e be ad 89 51 be 48 77 54 be 50 d8 13 bd
       -0.3101961 -0.20462675 -0.20748627 -0.036094964
0003a0 16 91 27 bd 60 2b c1 be 07 33 60 3e 22 4e d2 be
       -0.04090985 -0.37728405 0.21894465 -0.41075236
0003b0 eb d9 c6 be 48 ef d0 3d 11 14 dc be 54 f8 78 be
       -0.38838133 0.10201889 -0.4298406 -0.2431348
0003c0 9e ad 9a bd 0f 24 1d 3e 4c 61 6f be ca ff 95 be
       -0.07552646 0.15345787 -0.2337696 -0.29296714
0003d0 af 00 41 be ea c2 ca 3e 87 8d 85 be c9 b7 a0 be
       -0.18847917 0.39601833 -0.2608454 -0.31390217
0003e0 bd 87 d3 3e 50 cb ba be bd 65 c3 be e9 30 a6 be
       0.41314498 -0.3648324 -0.38163558 -0.3245919
0003f0 1a d3 55 3e 09 ad f6 bd e7 9c 07 be dc 98 44 be
       0.2088131 -0.120447226 -0.13243447 -0.19198936

proj.bias f4 [64]
000000 f8 1b aa be 52 12 71 be b3 bd 3d be fa 46 ba 3e
       -0.33224463 -0.23542145 -0.18529396 0.36382276
000010 9a 66 b4 3b 66 2d 83 3c 7f 50 14 be 44 8c 20 bd
       0.005505395 0.016012859 -0.14483832 -0.039196268
000020 85 45 58 3e 3b fa 7d bd 38 a4 86 be 30 f0 6c 3e
       0.2112027 -0.062006216 -0.26297164 0.231385
000030 57 99 60 3d b5 8a 0a 3e 18 90 d2 3e 96 ba 7c bb
       0.054833736 0.13529475 0.4112556 -0.0038563362
000040 f2 80 06 be 93 58 83 bd 7e 89 d5 bd 5f 8b 51 3c
       -0.13135126 -0.064133786 -0.10426615 0.012789576
000050 61 16 08 3d 4b 5d 53 3c 52 22 b3 3e 8f 48 ee 3c
       0.033224467 0.012900661 0.34987122 0.029087333
000060 96 ca 45 3e 1e 34 a7 be 5b 70 89 3e 8f 19 21 bc
       0.19315562 -0.3265695 0.26843533 -0.009832754
000070 f4 75 12 bd ea da 6f 3d 76 a1 62 3e 0f 0c a8 be
       -0.03575702 0.058558382 0.22131905 -0.328217
000080 c7 3d ae 3e f2 fe c6 3e f5 0c e8 bd a4 8a c7 3e
       0.34031507 0.38866383 -0.11330596 0.38972962
000090 b2 0f 8f be 17 89 bc be b4 20 1f bd e5 3c c6 be
       -0.27941662 -0.3682334 -0.038849548 -0.38718334
0000a0 f2 fb bd bd 9e 67 da be 3f e5 ca bd df 4b cf 3e
       -0.092765704 -0.4265718 -0.099070065 0.40487573
0000b0 00 f0 a6 3e 8a ea b5 3d 87 52 e3 be 86 58 73 3e
       0.3260498 0.088826254 -0.443989 0.23764238
0000c0 15 61 b2 3e d4 82 8f bd 44 4c 55 be d9 0d 5d be
       0.34839693 -0.07007375 -0.20829874 -0.21587314
0000d0 84 ab d7 be 97 34 02 be b2 59 0a be a2 ab ba 3e
       -0.42123044 -0.12715374 -0.13510779 0.3645907
0000e0 a6 f5 ca be 5c 1c 84 3c ef 66 b7 3e 8e 77 2f 3d
       -0.3964054 0.016126804 0.3582072 0.042838626
0000f0 06 b9 bc bd 16 1a 06 3d b9 b6 6f 3e 3b c8 ec 3d
       -0.09214978 0.03273972 0.23409547 0.115616284

enc.layers.0.self_attn.in_proj_weight f4 [192, 64]
000000 b7 67 e4 3c ec 32 bf 3d ca 38 b5 3d 81 ba fc 3d
       0.027881486 0.093358845 0.08848722 0.1234026
000010 c1 1f 0f 3d 82 6c a2 bd 70 07 13 bc 14 77 8c bc
       0.034942392 -0.079308525 -0.008973941 -0.017146625
000020 ce 27 75 bc 8e 46 dc bc 7c 52 ca 3b be 7b ed bd
       -0.014963103 -0.026889112 0.0061743837 -0.115958676
000030 94 96 24 be a1 b6 e5 bd 22 a3 30 3d 26 37 30 3e
       -0.16073066 -0.11216474 0.043124326 0.17208537
000040 4d 7b e9 bd 9f ed 02 be b9 0c 61 3d ae d6 b1 3d
       -0.11400471 -0.12785958 0.054943774 0.08683525
000050 20 e1 20 be 31 44 0c be ab 4e 7c bd e8 10 e4 bd
       -0.15710878 -0.13697888 -0.06159846 -0.11136037
000060 49 6d d1 3d 22 4d 4c bd 43 50 cb 3d 2d 18 0d 3e
       0.102259226 -0.049878247 0.09927418 0.13778754
000070 d3 83 70 bd 9e 85 8e 3d aa c3 20 3e cc 42 c0 bd
       -0.058719467 0.06959079 0.1569964 -0.093877405
000080 dc 29 1d 3e 28 0b 88 bd 9c 1a d3 3c bf 2d 25 3c
       0.15348 -0.06642753 0.025769524 0.0100817075
000090 81 3a 3a 3d fd 75 dc 3d a2 5f 4f 3a 5f e8 e2 bd
       0.04546595 0.10764692 0.0007910674 -0.110794775
0000a0 ae f0 21 3d 61 bc 97 bd e5 f7 a4 bd 15 e0 86 bd
       0.03953617 -0.07408977 -0.08055095 -0.06585709
0000b0 50 a1 c6 bd 0d d0 b1 3d 54 de ba bd d3 a9 41 bd
       -0.09698737 0.08682261 -0.09124437 -0.047281098
0000c0 e2 40 0b 3d 2b ed 13 be f1 fb 83 3d 1c 25 b6 3d
       0.033997424 -0.14445941 0.064445384 0.08893797
0000d0 9f 3f 06 be 2a 1b 34 bd bc e0 95 3d 43 b3 6e 39
       -0.13110207 -0.04397122 0.07318255 0.00022764229
0000e0 d6 bb bc bd 5c 59 01 be fe 55 7b bd bc 66 c8 3d
       -0.09215514 -0.12631744 -0.061361305 0.0978522
0000f0 81 92 f9 bd 25 b4 e1 3d f0 01 a3 bd 7a 29 4f 3d
       -0.121861465 0.11020688 -0.07959354 0.050576665
000100 bc 79 d6 bd 57 a8 95 bd 9b 0b a1 bc a1 1a 19 be
       -0.10472438 -0.07307499 -0.019658854 -0.14951564
000110 70 9f cd bd 09 59 1f bc 70 78 8e bc 34 9e e9 3c
       -0.10040176 -0.0097258175 -0.017391413 0.02851782
000120 6f ed f4 bd 3f a4 dc bd c5 80 b7 3d ea 9d 3a 3d
       -0.11959349 -0.10773515 0.08960108 0.045560755
000130 05 f4 55 bd db d6 9d bd 26 8c 86 bd 8c 38 99 3d
       -0.05223467 -0.07706996 -0.065697 0.074814886
000140 c0 3b 60 3c 57 03 36 3d b6 1a 66 3d 12 5f 22 be
       0.0136861205 0.04443678 0.056177817 -0.15856579
000150 92 04 3a bc 50 d8 6e 3d 4c 5d 8f bc 20 de 09 be
       -0.011353629 0.05831176 -0.017500542 -0.1346364
000160 91 db 84 bd 14 a9 ed bd 18 52 ff 3c 94 e9 69 bc
       -0.064871915 -0.11604515 0.031167075 -0.014276881
000170 2f 2d ee 3d 19 bd bb bc b0 25 c6 bd a0 ba d7 bd
       0.11629712 -0.022917317 -0.09675157 -0.10533643
000180 55 87 01 be 45 dd 3e bd 20 db ee bd a8 e9 df 3d
       -0.12649281 -0.046597738 -0.116628885 0.10933238
000190 32 82 ab 3d 9b e2 82 3b 3a ad 42 bd 2d 36 56 3d
       0.08374442 0.0039942986 -0.047528483 0.05229776
0001a0 a5 78 04 3e a5 99 95 3d c1 f9 1f 3d 08 ce c5 bd
       0.12936647 0.07304696 0.039056543 -0.09658438
0001b0 bb dd a8 bd e4 39 e3 3d 02 62 6d 3c d4 c9 08 be
       -0.08245417 0.11095026 0.014488699 -0.13358241
0001c0 aa 33 a4 3d a9 8c 01 3d 55 d9 00 3d 0b 3c 7f bc
       0.08017667 0.031628285 0.031457264 -0.01557828
0001d0 0b 18 23 bd 98 fd 1e 3d ad 29 0f 3e 4f e6 e9 3c
       -0.03981785 0.038816065 0.13980742 0.028552203
0001e0 8b a8 dd bd d8 6b e4 3d fd 1d 96 3c 0c 75 e4 bb
       -0.10823163 0.11153382 0.018324846 -0.006971961
0001f0 92 94 5b 39 dc a8 1c 3b 50 ea 8a 3d 3e db 0b 3d
       0.00020940814 0.002390436 0.06782973 0.034144633
000200 08 44 0d 3d 4a cd bd bd d0 4e 02 3e c7 d1 13 be
       0.034488708 -0.092676714 0.12725377 -0.14435492
000210 e7 c8 35 3c 78 71 d9 3c 5e 5c 6a bd df 01 0d bd
       0.011095262 0.026543364 -0.057216994 -0.034425613
000220 a7 f0 0c 3d b5 3f 16 3e 6e 24 bf bd 8c 07 21 3e
       0.03440919 0.1467274 -0.0933312 0.15725535
000230 a8 08 9c bd c3 fa 08 bd e8 37 d5 3d 7a 2d 1d 3e
       -0.076188385 -0.03344227 0.10411054 0.15349379
000240 ee fb cb bc 56 cc f8 bc 18 3f ff 3d d6 07 b3 3d
       -0.024900403 -0.030370872 0.12463206 0.08741729
000250 5b b9 a3 3d e5 2b 85 bd 75 8a 86 3d 17 25 62 bc
       0.07994338 -0.06502513 0.06569377 -0.013802788
000260 a5 6a 04 3d 56 97 42 bd a6 1b ac bd 5d 05 20 3e
       0.032328267 -0.047507606 -0.08403711 0.15627046
000270 25 5a 1a be 67 21 12 bb 8c 28 1c 3e 6e b9 c8 3d
       -0.1507345 -0.0022297741 0.15249842 0.09800993
000280 1f 51 b4 bb c8 a3 09 be 70 5b bc 3c 69 35 02 3e
       -0.0055028345 -0.13441384 0.02299282 0.12715687
000290 71 2c fa bd b3 84 ea 3c 39 4a 17 be d9 43 13 be
       -0.12215508 0.028627729 -0.14774407 -0.1438135
0002a0 63 72 e0 3d 95 55 51 bb 09 81 e6 bd 4f ac e4 bd
       0.109593175 -0.003194188 -0.1125508 -0.11165678
0002b0 12 85 18 3e 90 43 02 be 42 2b 2b be d0 b8 6b 3c
       0.14894512 -0.12721086 -0.1671572 0.014387324
0002c0 d6 b2 59 bc 17 d3 9c bd 41 b2 b2 3c ce a6 00 3e
       -0.013287267 -0.0765745 0.021813514 0.12563631
0002d0 91 aa 02 bd d4 38 22 be b2 f1 f9 3d 70 d3 ce bb
       -0.031900946 -0.1584199 0.12204303 -0.0063118264
0002e0 08 cc 0b be ae dd 88 3d 0d 78 a3 bd 48 48 a5 bd
       -0.1365205 0.06682907 -0.07981882 -0.08070427
0002f0 25 a7 9e bd 82 6c 1a 3e cf a0 62 bc a3 cc 98 bc
       -0.07746724 0.15080455 -0.013832285 -0.018652266
000300 c9 2f 10 3e d0 6f db 3d 97 26 ff bb c7 37 ab 3d
       0.14080729 0.10714686 -0.0077865827 0.08360248
000310 b8 ee 06 be c6 e4 ae 3d 57 93 ae 3d 01 8c d2 3d
       -0.13177001 0.08539729 0.085241966 0.1028061
000320 a4 ca a8 bd f9 0b 9f bd fe e4 62 3c 76 2c c3 3d
       -0.08241776 -0.077659555 0.013848541 0.095299646
000330 f0 bb c1 bd 6d ea dc bd a3 50 83 3d 93 d0 96 3d
       -0.09459674 -0.10786901 0.064118646 0.07364001
000340 f8 cf 1a 3e ca f3 90 3d 96 98 87 3d 12 25 5f bd
       0.15118396 0.07077749 0.066209 -0.054478712
000350 f3 bc e7 3d d8 5a 1e 3e 2d c8 d3 bc a8 b5 a0 bc
       0.11315336 0.15464342 -0.025852287 -0.01961787
000360 dc a9 0c 3e c4 fc 5e bc f3 0b fe 3d 92 bb 2b bd
       0.13736671 -0.013610069 0.12404623 -0.041926928
000370 44 07 98 3d b2 71 2e 3e 35 bb 21 be 7f 27 94 3d
       0.07423261 0.17035559 -0.1579407 0.07234096
000380 a1 71 14 bd 32 5c 3d 3c c6 d2 8d bd 76 b8 55 3d
       -0.036241177 0.011557626 -0.069249675 0.05217787
000390 be 54 c1 bd a3 dd 2e bd 9a f0 87 3c 88 cb 25 3e
       -0.094399914 -0.042691838 0.01659422 0.16190922
0003a0 31 09 e4 3d e6 62 d1 bd b5 ca 0f be 83 5d 02 be
       0.111345656 -0.102239415 -0.1404217 -0.12730984
0003b0 bc 26 a8 3d 48 69 81 bd 78 fa e8 bd 5a e7 45 3d
       0.08210513 -0.06318909 -0.11375898 0.048316337
0003c0 a0 b5 e0 3c 09 2a 17 3e f8 4d 3c bd ac 7e c3 bc
       0.027430356 0.14762129 -0.045972794 -0.023864113
0003d0 d4 3e e3 bc 22 67 8f 3d 49 c6 db 3d 0f 74 64 3d
       -0.02773992 0.07002093 0.10731179 0.055774745
0003e0 3e 61 33 bd a8 6d 0f be fb 4a ef 3d 4d 83 a6 3c
       -0.04379391 -0.14006674 0.11684223 0.020326281
0003f0 7f 1f 69 3d 3e 47 87 bc 36 3f 6b 3d 8f a4 1c 3e
       0.056914803 -0.016513463 0.05743333 0.15297149

enc.layers.0.self_attn.in_proj_bias f4 [192]
000000 0a 9c 5b 3c db db 3c bc 01 d9 85 3c dc ef 88 bc
       0.013403902 -0.011527027 0.016338827 -0.016715936
000010 81 15 d3 bb 9b 0c 84 bc 61 02 83 3c 55 64 83 3c
       -0.0064417724 -0.016119292 0.015992345 0.016039053
000020 a9 39 3f 3c 7f 3d 6f bc f4 a9 83 bc 3e bd 6c bc
       0.011671462 -0.014602064 -0.01607225 -0.014449416
000030 1b 7d 67 3c 1f 6c 53 3c 8c 34 04 3c 86 69 97 bb
       0.014128949 0.012904196 0.008069169 -0.0046207337
000040 cf 9c 8d bc ec 01 aa 3c b1 cc a7 3c 84 94 88 3c
       -0.017286686 0.02075287 0.020483347 0.01667238
000050 d4 03 f5 bb 81 d0 ac bc 9a b6 b8 bc 75 fd 25 3c
       -0.007477263 -0.021095516 -0.022548009 0.01013123
000060 e6 f6 97 bc 99 fe 76 3c 33 69 a7 3c 49 a6 84 bc
       -0.018550348 0.015075349 0.020435905 -0.016192572
000070 f0 fb 99 bc c3 4a 8b bc 96 56 a8 bc 57 3f 90 3a
       -0.018796891 -0.017003423 -0.0205491 0.0011005205
000080 dc a4 15 bc 3a 48 57 bc ac 9c 58 bc 11 b5 30 bc
       -0.009133544 -0.013139779 -0.013220947 -0.010785357
000090 4e b6 39 3c 17 b5 1d bc 26 5e 34 3c 84 4b 04 3b
       0.011334969 -0.009625695 0.011008775 0.0020186612
0000a0 8b fa 0e 3c 81 2c 32 bc bd 80 fb 3b b5 b6 18 bc
       0.008726726 -0.010874868 0.007675259 -0.0093209045
0000b0 a6 d4 2e 3c f7 b8 41 bc 99 d3 fd bb 24 3c 3a bc
       0.0106708165 -0.011823884 -0.0077461717 -0.011366878
0000c0 2b 1f e3 bb 74 26 6f 3c d5 7f 93 bb de 9e 0b 3c
       -0.0069312057 0.01459657 -0.0045013228 0.008521764
0000d0 f0 37 17 bc ac a1 e3 bb c6 ec 3c 3b d3 11 b3 bb
       -0.009229645 -0.006946763 0.0028827651 -0.0054647713
0000e0 99 c3 c7 3b 20 ca ca 3b 71 81 a1 3b d5 7c 34 ba
       0.006096315 0.006188646 0.0049287607 -0.00068850565
0000f0 03 5b 99 3b 11 af 48 bb d4 23 01 3c 85 eb ae 3b
       0.004680039 -0.0030621926 0.007882077 0.0053381347
000100 b5 b5 7b 36 a0 e8 e8 37 02 89 cc 36 18 b5 95 b6
       3.7507682e-06 2.776488e-05 6.0956236e-06 -4.461628e-06
000110 cf 32 0d 37 95 32 b4 b6 6c 9a 32 37 10 46 bb b7
       8.416085e-06 -5.3703066e-06 1.0645581e-05 -2.2324763e-05
000120 7d af 99 b7 22 a0 91 36 a1 fb 0a 36 28 63 e0 36
       -1.832074e-05 4.3399787e-06 2.071007e-06 6.6872635e-06
000130 f6 f4 dc b6 7f a8 1e 37 c6 53 e7 b7 72 b7 fd b6
       -6.585028e-06 9.456765e-06 -2.7576356e-05 -7.5613434e-06
000140 01 d2 50 b9 92 e3 cd 39 ec 62 8e 39 32 76 0f 39
       -0.00019914658 0.000392702 0.00027158053 0.00013681574
000150 ac 65 cb 38 53 2c 38 38 c6 46 82 37 3a 1d c8 38
       9.698732e-05 4.39103e-05 1.5530164e-05 9.542187e-05
000160 fb ef ea b8 e3 97 a7 b9 b0 bb 0c 38 c0 dd f4 b8
       -0.00011202689 -0.00031965887 3.35534e-05 -0.00011676131
000170 23 15 92 39 1d bd 63 b8 e0 83 eb b7 cb 71 54 38
       0.00027863038 -5.4297143e-05 -2.8075592e-05 5.0650717e-05
000180 0b 62 b6 b7 c0 8e 47 38 b0 bb 82 38 5a 94 fa b6
       -2.1741746e-05 4.7578244e-05 6.2338426e-05 -7.467851e-06
000190 d6 94 61 b8 a5 d0 bc b7 79 94 1a b8 1e 75 cf 37
       -5.3782795e-05 -2.2508504e-05 -3.6854737e-05 2.473086e-05
0001a0 d0 dc 6f 36 4c b9 65 37 cb 81 04 b7 e3 10 36 35
       3.5742305e-06 1.3692606e-05 -7.898033e-06 6.7824857e-07
0001b0 9d ac d5 b7 5b e0 5a 37 2f 51 af 37 b3 73 0a 38
       -2.5471958e-05 1.3046049e-05 2.089943e-05 3.3009517e-05
0001c0 f8 50 9e 38 a0 a7 7c b8 37 03 14 39 10 6b 93 38
       7.549109e-05 -6.0237595e-05 0.00014115578 7.029448e-05
0001d0 72 db 9a 35 7b 2a 3f 38 a5 42 7f 38 34 73 7b b8
       1.1537761e-06 4.557751e-05 6.0858805e-05 -5.9950355e-05
0001e0 f1 35 a5 b7 99 f5 e6 38 d5 60 87 38 c1 e8 8f b8
       -1.9694651e-05 0.00011013001 6.455338e-05 -6.862125e-05
0001f0 5f 58 ba b7 46 06 25 39 d7 5a be b8 b0 11 06 39
       -2.2214079e-05 0.00015737963 -9.076826e-05 0.00012785825
000200 5b 10 60 3c 17 00 91 bc 38 8d 2d 38 f2 93 61 bc
       0.013675774 -0.017700238 4.1377934e-05 -0.013768183
000210 99 cb b7 3b bf 0f 3b bc 32 47 63 bc f8 b6 83 bc
       0.0056089875 -0.011417328 -0.013871955 -0.016078457
000220 2c 8d 6d 3c 3c f1 1c bb 46 29 80 3c 85 7f 41 3c
       0.01449899 -0.0023947498 0.01564468 0.011810188
000230 73 86 5f 3c 4d c8 17 bc 43 8f d3 bb 3b 03 55 bc
       0.013642895 -0.009264064 -0.006456287 -0.0130012585
000240 2a 93 f4 3b ba 31 5a 3c f3 c7 61 bc 77 1c 70 bc
       0.0074638324 0.01331752 -0.013780582 -0.014655224
000250 08 80 2a 3c 88 3f 8c 3b ee 35 85 3c 78 16 86 3c
       0.010406502 0.0042800345 0.016261067 0.016368136
000260 fa db 19 39 d5 f4 e0 3a d5 4b 26 3c 9e 64 5b 3b
       0.00014673165 0.0017162809 0.010149916 0.003347672
000270 75 15 fa bb cd 9f 0c 3c ae c0 8a 3c 4a b5 f3 3b
       -0.0076319524 0.008583021 0.01693758 0.007437383
000280 38 fa 26 3b 87 0b 21 bc 56 04 34 3c 73 70 df bb
       0.0025478732 -0.0098294085 0.010987362 -0.006818825
000290 18 9d f7 bb ca 7d 1f 3b b7 bf 6a 3c c8 b0 23 bc
       -0.007556569 0.002433645 0.014327935 -0.009990878
0002a0 72 01 0f bc c4 a2 7f bc bb b1 60 3c f6 83 2c bc
       -0.008728372 -0.015602771 0.013714249 -0.010529509
0002b0 36 c5 cf bb 88 47 ae ba 3e 0a 7e 3c 84 64 cd bb
       -0.006340648 -0.0013296464 0.015505372 -0.006268086
0002c0 61 db 78 3c f8 56 b8 bb 9b f8 fd 3b 68 fa 69 3c
       0.015189023 -0.005625602 0.0077505833 0.014280893
0002d0 08 7a 27 3c 94 c4 09 bc 3e da 37 bc 6b 88 45 3c
       0.010221966 -0.008408684 -0.011221467 0.01205645
0002e0 48 3b d6 3b a6 a6 1e 3c 3e 5b f1 ba 4e 4b 20 bc
       0.0065378286 0.009683287 -0.0018414033 -0.009783579
0002f0 03 8a 46 3c b9 6b 6c bc 6e 59 26 bc 78 13 0d bb
       0.0121178655 -0.01442998 -0.010153158 -0.0021526497

enc.layers.0.self_attn.out_proj.weight f4 [64, 64]
000000 75 10 b9 bd b1 92 9f bd 17 be bf 3d 0d be 73 bd
       -0.09036342 -0.07791651 0.09362429 -0.05950742
000010 a5 26 9a bd 81 59 19 3c 2b 47 01 bd c9 4a 2f 3c
       -0.07526902 0.009359718 -0.03156201 0.0106989825
000020 a7 8a bf 3d f8 e9 75 bd 43 ef e2 bc 15 8e 97 3d
       0.09352618 -0.060037583 -0.02770198 0.07400147
000030 ee 7e 43 3d 88 9d 5d bd 1c f1 82 bd 7e 6e 24 bd
       0.04772847 -0.05410531 -0.06393644 -0.040144436
000040 df 66 92 3c 58 9b c3 bc da 2e 08 3a 00 f7 ce bc
       0.017871318 -0.023877785 0.00051949697 -0.025264263
000050 f5 93 3d bd 4a 01 8d bd 16 c0 4f 3d 0e 51 1b bc
       -0.04628368 -0.068850115 0.050720297 -0.009479774
000060 1b 56 b1 bd 35 97 6d bc 3f ba 7a 3d 33 e4 a9 bd
       -0.086590014 -0.014501383 0.061212774 -0.08295479
000070 01 35 e7 3d d0 5c e5 3c 5e e4 eb 3d d4 be 04 bd
       0.112894066 0.027998358 0.11518167 -0.03240855
000080 43 47 ae bd 61 09 cb bd 37 8c 83 bd da cf 7b 3d
       -0.08509686 -0.09913898 -0.06423228 0.06147752
000090 c7 48 a5 3d c6 be 05 be e9 ef 99 3d aa 6c da 3d
       0.08070522 -0.13061056 0.07516462 0.10665257
0000a0 85 4d ad 3d ee 5b cd bd 60 66 fa bd d1 3f 2f 3d
       0.08462051 -0.100273 -0.12226558 0.04278547
0000b0 fd 8e aa bc 8a e9 4c bd 5c 97 cd 3d ff a2 39 bd
       -0.020820135 -0.050027408 0.10038635 -0.04532146
0000c0 ac bf e5 3d f6 3b 89 3d ea 5d dd 3c cb 20 8e 3d
       0.11218199 0.0670089 0.02702232 0.069398485
0000d0 3a 27 a7 3d 28 e4 ad bd ec b2 bb 3d 05 09 d3 3d
       0.08161779 -0.08490783 0.09164986 0.10304455
0000e0 74 07 91 3d 40 05 c8 bd 37 b5 8d bd 80 57 04 3d
       0.070815 -0.09766626 -0.069193296 0.03231001
0000f0 4a 2e f9 3d ee 5a e4 bd 04 05 04 3e 11 d5 c1 bb
       0.12167032 -0.11150156 0.12892538 -0.005915292
000100 e7 a3 3e ba da d0 5f 3d 01 31 8d bd 8a 7a 3e bd
       -0.0007272348 0.054642536 -0.068941124 -0.04650358
000110 32 2f 79 bd 75 6a 9a 3d b7 23 80 bd 71 7b 29 3d
       -0.060836025 0.07539836 -0.06256812 0.04137749
000120 64 00 b5 3d 6b 0d b3 bc 4e a7 e9 bd 39 b7 e8 bd
       0.08837965 -0.021856984 -0.11408864 -0.11363072
000130 da 72 be 3c 04 36 b9 3d 65 cd 16 bc 53 99 04 be
       0.023248125 0.09043506 -0.009204243 -0.12949114
000140 be df 69 3c cc 85 80 3d 80 b8 49 bd 37 e9 00 3d
       0.014274536 0.0627552 -0.04924822 0.03147241
000150 e1 6e 9b bc df a0 dd 3d b8 d7 9c 3d df 39 cd 3d
       -0.01897377 0.10821699 0.076583326 0.10020804
000160 89 f9 00 3e 0e 25 62 bd 20 a1 8f 3d 10 5a 05 3e
       0.1259519 -0.05521112 0.07013154 0.13022637
000170 ea 85 af bd 11 9c b6 bd 02 69 44 3d ab c2 ba 3d
       -0.08570464 -0.08916486 0.047951706 0.09119161
000180 0c 2a b2 3c 08 26 5f bd 58 e1 f2 bd be 73 88 bd
       0.021748565 -0.05447963 -0.11859387 -0.06662701
000190 66 5c 03 3d 6d a9 03 be 98 ea b5 3d 30 2c 40 bc
       0.03207054 -0.128576 0.08882636 -0.011729285
0001a0 48 a8 db 3d 2c f2 7e 3b ba 9a 87 bd 85 60 b4 3d
       0.107254565 0.003890167 -0.066213086 0.08807472
0001b0 8c cd 7d 3d 49 5c 7e 3d de 6d bc 3d d9 42 87 3c
       0.061963603 0.06209973 0.09200643 0.016511368
0001c0 aa 96 39 3d c6 82 01 3e 49 89 ca bb d3 fa 99 bd
       0.0453097 0.12647542 -0.0061809164 -0.07518544
0001d0 a3 27 dc bd 3e 5a e4 bd 83 be 6f 3d 79 ce b0 bd
       -0.107497476 -0.11150025 0.058531296 -0.086331315
0001e0 c4 1e da bd 2a c5 90 3d 07 ec 7a 3c 41 f1 fe bc
       -0.10650399 0.07068856 0.015315062 -0.031120898
0001f0 43 0a ae bd e3 07 c3 3d 00 3f a8 bd b6 ba b8 bd
       -0.08498051 0.09522989 -0.08215141 -0.09019987
000200 63 7b 22 3a eb 96 c1 3d dc d7 00 3d be b8 09 bd
       0.00061981956 0.094526134 0.03145586 -0.03362345
000210 b8 70 ad bc a6 bb a4 3c b2 3b bf bc 51 30 c5 3d
       -0.021171913 0.020109009 -0.023343895 0.09628356
000220 0d 13 fc bd c0 35 79 3d f6 a8 61 bd 8d 3a 5b 3c
       -0.12308321 0.060842276 -0.055092774 0.013380659
000230 3a 72 cb 3b 71 9f ce bd 1d 16 5d 3c d4 d4 3a bc
       0.006208685 -0.10089005 0.013494042 -0.011403281
000240 64 82 fb 3d 44 9c cb 3d d5 5b a5 bd eb 7b a6 3d
       0.122807294 0.09941915 -0.08074156 0.08129104
000250 f2 85 05 be 15 3b 9f bc 3c d4 d1 bd 48 74 93 3d
       -0.13039377 -0.019437352 -0.102455586 0.07199913
000260 2e bb bb bb fc e4 25 3d e6 e3 f6 3d e5 5b 3f 3d
       -0.0057291007 0.04050158 0.12055187 0.046718497
000270 c9 9f 64 3c 4a 74 db 3d 4c e3 8a 3d f5 a0 f4 bd
       0.013954111 0.1071554 0.06781635 -0.119447626
000280 76 1f a7 3b 0a f3 dc 3d d6 9b d9 bd 9d a2 f4 3d
       0.005100186 0.107885435 -0.106254265 0.119450785
000290 b9 97 f2 bd ae db d6 bd f9 5c 84 bb b4 bb 4c bd
       -0.11845345 -0.10491119 -0.0040394035 -0.049983695
0002a0 54 d7 5a bd 65 23 89 3d 7f bd fd 3d a6 55 f8 bd
       -0.05342801 0.06696204 0.12389659 -0.12125711
0002b0 5f 5a 5b bd 79 03 87 3d 8d e1 4e bd 1a 92 f2 3d
       -0.05355298 0.06592459 -0.05050807 0.11844273
0002c0 4c 93 69 3d e0 a7 7e 3c fc 31 ad bd cb 65 6f bd
       0.05702524 0.015542954 -0.084567994 -0.058446687
0002d0 3c 21 c5 bb f8 fb a1 bd 77 f0 49 3b 0f 9e 96 3d
       -0.0060159247 -0.07909387 0.0030813494 0.07354366
0002e0 3e 73 2b bd a6 39 03 3e 0e ea 03 3b 95 f9 20 bd
       -0.04185795 0.1281496 0.002012852 -0.03930052
0002f0 10 c9 d5 3d 37 05 8b 3d 2a 32 b8 39 4a b0 e3 bd
       0.1043874 0.06788104 0.0003513259 -0.11117609
000300 4e a4 e3 bd c2 9e 01 3c c6 96 b2 bd 10 bb dc bd
       -0.11115323 0.007911386 -0.08720164 -0.10777867
000310 9e ed 9a 3d b1 90 e1 3c 8b fe dc bc 02 b7 d3 bb
       0.07564853 0.027534815 -0.026976844 -0.006461025
000320 9e 99 ca 3d 46 09 ae bd ed 23 fd bd 08 7e 53 3d
       0.098925814 -0.084978625 -0.12360368 0.051633865
000330 8f 69 23 3b fe 28 b2 3d 39 b7 22 3c 39 ef 45 bd
       0.0024934744 0.08699225 0.009931379 -0.048323844
000340 ae 51 1f 3c 9d 02 4c bd 6b 7d f4 3c 19 c0 5b bc
       0.009724064 -0.04980718 0.02984496 -0.013412499
000350 88 7f 8b 3d b2 8c b4 3d ec a1 c8 3b 66 2d af bd
       0.06811434 0.08815898 0.006122818 -0.08553581
000360 04 79 1c bd 94 0d 5d bd e2 4c af bb 49 0e 57 bd
       -0.038201347 -0.053968027 -0.0053497413 -0.052503858
000370 25 b8 be 3d eb 62 9a 3d d9 2b 01 3e 12 cd 4e 3d
       0.093124665 0.07538398 0.12614383 0.05048854
000380 57 4a e3 bd e9 42 95 3d 45 6e ab 3d 8b 2e 48 bc
       -0.110981636 0.07288153 0.083706416 -0.012218128
000390 3e 56 89 3d 05 49 2e 3d cc b7 99 bd 46 4a 1b bd
       0.067059025 0.042550106 -0.075057596 -0.03791263
0003a0 d5 f5 8f bd 48 4c 20 bc 24 c9 8d 3c 02 ba 04 be
       -0.070293106 -0.009783812 0.017307825 -0.12961581
0003b0 c6 83 5a 3d b5 fd 92 bc 96 1c ae bd dc 57 e1 3d
       0.053348325 -0.017943243 -0.08501546 0.11003086
0003c0 e6 5b 89 3d 84 dd 5e bb 9c 4b 80 bd 58 94 5f bc
       0.06706981 -0.0034006545 -0.06264421 -0.013646208
0003d0 08 61 18 bd a4 8f e0 3c 9b 3f 19 bd d0 4f 51 bc
       -0.03720191 0.027412243 -0.037414175 -0.012775376
0003e0 d7 57 9a bc d4 65 84 bc b8 26 01 3e f6 8e b7 bd
       -0.018840713 -0.016161837 0.12612426 -0.089628145
0003f0 35 d8 08 be 6a 0f cf bd ec fc dc bd 90 b0 04 3e
       -0.13363726 -0.10110362 -0.107904285 0.12957978

enc.layers.0.self_attn.out_proj.bias f4 [64]
000000 f9 3c 17 bc b1 f3 1a bc d9 28 2c 3c 79 e6 1a 3c
       -0.009230846 -0.009457515 0.010507786 0.009454363
000010 ab 58 44 bc 4c 17 98 bc 90 b1 68 3c a1 97 35 bc
       -0.011984031 -0.018565796 0.01420249 -0.011083514
000020 6d 56 55 3c aa 0f 6b bc 6e 92 41 3c 78 a5 97 3b
       0.013021094 -0.014346996 0.011814697 0.0046278797
000030 b6 ab 76 bc c4 5b 84 3b 62 62 50 bc 6c 76 71 3c
       -0.0150555875 0.0040392596 -0.012718769 0.014737707
000040 d5 9f 72 bc 21 fd 31 3c 0a 1a 03 bc a0 74 76 3c
       -0.014808615 0.010863573 -0.008001814 0.015042454
000050 67 29 5e bc 92 fa 0a 3c 81 f1 ea 3b dd 70 dd bb
       -0.013559676 0.008482592 0.007169903 -0.006757839
000060 30 a0 61 3c 6b 39 80 3c 06 4d 30 bc ab 18 60 3c
       0.013771102 0.015652379 -0.010760551 0.013677756
000070 43 d2 0b 3c ff 58 8f 3b 84 ae ef 3b 08 3e 87 3c
       0.008534017 0.004374623 0.007314505 0.016509071
000080 a3 15 c4 3b a1 86 30 bc 6a 7f be bb 93 ff 16 bc
       0.0059840246 -0.0107742855 -0.005813529 -0.009216207
000090 4d 68 6e 3c 15 7d 0a bc 80 f0 02 3c 9b ca 80 3c
       0.014551234 -0.008452673 0.00799191 0.01572161
0000a0 16 7b 50 bc 0e 61 24 3a 8c 97 84 3c f7 f2 8c bc
       -0.0127246585 0.0006270566 0.016185544 -0.017205698
0000b0 31 ff a1 bc 19 54 c9 3a 16 01 70 3a 5a 4d a4 bc
       -0.019775005 0.0015360146 0.0009155435 -0.020056415
0000c0 ea 2c 23 bc ed 92 bc bb e2 28 ec bb ba b9 81 3c
       -0.009959439 -0.0057548196 -0.007207022 0.015835632
0000d0 b4 09 38 bc d8 3b 2c bc 56 ef bf bb 40 99 16 bc
       -0.011232782 -0.010512315 -0.0058573885 -0.009191811
0000e0 5f 75 5e bc f0 87 a1 3b b3 79 f7 bb 14 05 ff 3b
       -0.013577788 0.004929535 -0.0075523495 0.007782588
0000f0 12 f5 fb bb 5e f9 3e 3b 89 c4 6a bc 84 84 63 bc
       -0.007689127 0.0029140334 -0.014329084 -0.013886575

enc.layers.0.linear1.weight f4 [128, 64]
000000 bc fb ec bd 42 8c b3 3d 74 fc c7 3d 9d f0 28 3c
       -0.11571452 0.087669864 0.097649485 0.010311273
000010 1b 07 a0 bd b2 8d a3 bd f6 94 19 3b 0b e6 0f be
       -0.07813855 -0.079860106 0.0023434735 -0.14052598
000020 43 63 e7 3c 10 7b bb bd a7 1f 87 3d c7 32 92 bd
       0.028245574 -0.09154332 0.06597834 -0.07138591
000030 57 81 f1 bc 75 e4 e8 3c e0 96 8d 3c 5e 76 6e 3c
       -0.02948062 0.02842925 0.017283857 0.014554588
000040 7a a3 64 3d d1 45 fb 3d 80 e8 9f 3d 65 e8 ef 3b
       0.055819966 0.12269176 0.07808018 0.0073214048
000050 dc aa 27 bd bc ca ed 3b d8 50 3b bd 25 70 3e bd
       -0.04093443 0.007256834 -0.045731395 -0.046493668
000060 a7 23 86 bd e3 18 c4 3d e7 78 8d bc 6b 7d bc bd
       -0.06549769 0.09575059 -0.017269565 -0.09203609
000070 a3 32 ee bd 00 93 00 be f5 49 ed bd 55 5e d6 bd
       -0.11630752 -0.12556076 -0.11586372 -0.10467211
000080 23 45 09 3e 1e d8 04 be 75 18 96 3d 4a 3d ad bd
       0.1340528 -0.12973067 0.073288836 -0.084589556
000090 8c 4c 70 3d 91 fd 5f bd 8a 9e e6 bc ca f0 be 3d
       0.05866675 -0.05468518 -0.02815177 0.093232706
0000a0 52 d2 05 be 95 97 b4 3d 3f 1a 4a bd be a7 04 be
       -0.13068512 0.088179745 -0.049341436 -0.12954614
0000b0 67 e2 2a bd 1e 07 00 be 47 b0 d5 bd 72 7e ad 3d
       -0.04171982 -0.12502715 -0.10434013 0.08471383
0000c0 82 60 f3 3d f8 70 a3 bd bf 23 1b 3d 56 b1 0f 3d
       0.11883642 -0.079805315 0.037875887 0.03508123
0000d0 aa ae 09 3e 69 5a 5b 3d 0a ab 22 bd 5e 41 af bd
       0.13445535 0.05355302 -0.039713897 -0.0855739
0000e0 cf e5 9a bc 79 c2 ce bd 11 ed b6 bd d0 8d ce bd
       -0.01890841 -0.100956865 -0.089319356 -0.10085642
0000f0 d8 5b dc 3c 29 d4 c6 3d be 1f 97 3d db 4f d0 bd
       0.026899263 0.09708435 0.07379101 -0.10171481
000100 94 f2 ba 3d d9 d5 eb 3c c7 3f 28 bd 76 a9 c2 bd
       0.09128299 0.028788494 -0.041076448 -0.09504978
000110 7e 26 74 3d 2d 59 4c bc 34 14 6d 3d 63 d0 90 3d
       0.05960702 -0.012472433 0.057880595 0.070709966
000120 a2 a9 83 bd c9 7b 9f 3d df db b8 bd 33 eb 44 3d
       -0.06428839 0.07787282 -0.09026312 0.048075866
000130 00 c7 9d 3d 85 dc 01 be 83 95 06 3d df 29 b0 bd
       0.07703972 -0.12681778 0.03285743 -0.08601736
000140 04 d5 d9 3d 6f 1d bc 3d e7 44 e9 3d 98 5f 7a 3d
       0.10636333 0.091853015 0.11390095 0.06112632
000150 a1 19 b3 bb 04 be 0b bc 6d 71 83 3c c9 eb 87 3d
       -0.0054657017 -0.00852919 0.016045297 0.06636769
000160 56 ac e1 3d 4f 6d 8b 3d ef 1b 8c bc a3 f0 69 bd
       0.110191986 0.06807958 -0.017103164 -0.057114255
000170 8d 7e 54 bc 52 d8 cc bd d9 73 c0 bd 1b 21 a6 3c
       -0.012969625 -0.10002197 -0.09397096 0.020279458
000180 f2 3e d3 bd 5f ee 76 3d 83 55 27 3b fc d6 aa 3d
       -0.1031474 0.060285922 0.0025533147 0.08341786
000190 29 93 cf bd b3 d2 ec 3d 1a 90 4d bc b3 10 1f 3d
       -0.101354904 0.11563625 -0.0125465635 0.038834285
0001a0 76 7b 40 bd 12 00 1d 3d 9c a9 8f 3c e5 e4 eb 3d
       -0.04699274 0.038330145 0.01753693 0.115182675
0001b0 6b f5 2c 3d 6c 68 02 3d 2a 16 f8 3b ad 6e 01 be
       0.042226236 0.031837866 0.0075710015 -0.12639876
0001c0 50 c9 21 3d 0a 98 57 3c b3 83 8f bd 30 00 7e bd
       0.039498627 0.0131588075 -0.070075415 -0.062011898
0001d0 60 f8 5d 3c 67 86 94 3d f9 e8 25 bc 76 df f2 3c
       0.013547987 0.07252198 -0.010126346 0.02964757
0001e0 6d ab 35 3d a2 1e a3 3d 57 6b 96 3d aa 1b 63 3d
       0.044352937 0.07964827 0.07344692 0.055446304
0001f0 2c 2e a8 bd fe ca 4b 3d 2b 62 5e 3d f5 8a 11 bd
       -0.082119316 0.049754135 0.05429284 -0.03553291
000200 56 d2 da bc eb 42 d8 3d 8c a5 6c bd 39 18 8c 3d
       -0.026711624 0.105596386 -0.057775065 0.068405576
000210 ea bf 6b bd 88 98 8c 3b 93 b4 6f 3d c3 5e b5 3d
       -0.05755607 0.004290644 0.05852182 0.08855965
000220 5e d3 91 bd bd 87 76 bc f9 e8 23 bd 1d 7b 55 bd
       -0.07120393 -0.015047011 -0.040017102 -0.052119363
000230 6b 87 62 3d 41 4f 60 bd 8c da c8 bc 71 39 a5 3d
       0.055304926 -0.054763082 -0.024518274 0.08067597
000240 7b e6 a3 bd 81 3d 79 3d ca 13 e2 3d b7 98 93 3c
       -0.08002945 0.06084967 0.11038931 0.018017156
000250 e1 df 07 bc ea 07 88 3d af 0b a3 3d 45 26 9b 3d
       -0.008293123 0.066421345 0.07961213 0.07575659
000260 04 61 da 3d 8f 23 cb 3d a3 75 a2 3d fe b2 e3 3d
       0.106630355 0.09918892 0.07932594 0.111181244
000270 c7 e0 c4 3b 39 f4 c5 bd ee 05 ef bd 3a c2 a4 3d
       0.006008241 -0.096657224 -0.11671053 0.08044858
000280 73 cc a4 3d 30 7a 2e bc d9 a8 c5 3c 6d 21 85 3d
       0.08046808 -0.010649249 0.024128364 0.06500516
000290 da 9e b3 3d cc 33 30 3d ea 08 77 bd 67 7e 87 bd
       0.08770533 0.043018147 -0.060311235 -0.06615906
0002a0 5b ab a5 bc 60 51 e9 3d ed 33 e0 bd ff 8e 30 ba
       -0.02022331 0.11392474 -0.10947404 -0.0006735175
0002b0 1b bf 26 bc 53 94 b7 3d fa 3a b9 3d 63 6b c9 3d
       -0.010177399 0.089638375 0.09044452 0.098349355
0002c0 03 65 7c bd 92 e5 38 3b 7e 2b 87 bd be cb b9 3d
       -0.06161977 0.0028213006 -0.06600092 0.09072064
0002d0 ed 61 b9 3d e5 de 38 bd 83 dd 56 bc 16 0a d2 bd
       0.09051881 -0.045134444 -0.013114336 -0.1025583
0002e0 bf 91 a4 3d 9c 7e 74 bd 6a d9 50 bd a2 9f e6 bd
       0.08035611 -0.059691057 -0.050988592 -0.11260916
0002f0 a1 d7 97 3d e7 c5 a9 bd 68 6b d1 bd d3 5a ec 3c
       0.07414175 -0.082897 -0.10225564 0.028851902
000300 6a a1 d7 3d 8e 8b bf bd b7 53 b3 3d a5 f7 9a bc
       0.10528834 -0.0935279 0.08756202 -0.018916914
000310 31 88 00 3d 4b dc 8a bd 29 ba eb bd 7c 65 ac bd
       0.031379882 -0.06780299 -0.115101166 -0.08417794
000320 6b ac b0 bc 16 54 94 3d 6d fa d5 3d ab cc 03 be
       -0.02156659 0.072426006 0.104481556 -0.12871043
000330 23 36 9f bc 50 83 0a 3d c1 e3 b3 ba ed e7 8a 3d
       -0.019434994 0.033816636 -0.0013724492 0.067825176
000340 17 61 27 bd 18 cc 83 3d 5a 15 b7 bd 2a a1 ef bc
       -0.040864076 0.06435412 -0.08939619 -0.029251654
000350 4e 01 ee bc 61 ed 22 bd 15 06 c5 bc 48 80 e7 3d
       -0.029053356 -0.039777163 -0.024050752 0.113037646
000360 9e 15 e1 3c 99 d7 22 bc fa 53 76 3d f0 a5 2e bd
       0.027476128 -0.009939098 0.06013868 -0.04263872
000370 b8 ce c7 3c 6b fa e1 bd 4f fa 09 be f3 8f 6d 3d
       0.024390563 -0.110340916 -0.13474391 0.05799861
000380 a1 16 9a bd 92 b9 49 bd 85 39 c9 bd f9 4d 93 3d
       -0.07523847 -0.04924924 -0.09825424 0.071926065
000390 ec ec 43 3d 7f dd 2c 3d d3 43 32 3d 1d a2 01 bd
       0.04783337 0.042203423 0.043521713 -0.031648744
0003a0 c8 78 97 bd 35 8d 0c bd c9 02 a1 bd d2 07 bb bd
       -0.07396084 -0.034314353 -0.07861859 -0.09132351
0003b0 4d 92 e4 3d 0e 11 3a bd 4f fa f8 ba f4 8d 80 3d
       0.11160717 -0.04542642 -0.0018995496 0.062770754
0003c0 56 d9 94 3d d2 c6 27 3d e4 c7 fd 3d 6d d8 f5 bc
       0.07268016 0.040961094 0.12391642 -0.030010426
0003d0 14 b4 09 3e df 94 d0 3c 39 f3 e2 3d b0 74 06 be
       0.134476 0.025461612 0.11081547 -0.1313045
0003e0 39 ec e3 3c 5b b2 69 3c 5a a6 6a bb f1 6d 85 3d
       0.0278226 0.014263715 -0.003580472 0.0651511
0003f0 a5 77 73 bd b9 86 6f bd fd 65 12 3d 9d ad e2 bd
       -0.059440274 -0.05847809 0.035741795 -0.1106827

enc.layers.0.linear1.bias f4 [128]
000000 00 40 e1 3c b6 a3 03 be c6 93 b2 3d b2 da b1 3d
       0.027496338 -0.1285542 0.08719592 0.08684291
000010 0e 6f a1 bc d5 63 64 bb 9c 17 c5 bb 0d c1 29 3d
       -0.019706275 -0.0034849544 -0.0060147773 0.041443873
000020 f5 ae db bd 26 e4 d7 3d 40 08 35 3d 6c a2 6d bd
       -0.1072673 0.10541563 0.04419732 -0.058016226
000030 cc a2 d8 3d 4c 56 6f bd 5f 8b 22 bd 31 6c b8 3d
       0.10577926 -0.05843191 -0.039683696 0.09005011
000040 32 60 2e bd de 5d c0 3d 06 42 e0 3c de a0 ff bd
       -0.042572208 0.09392904 0.027375232 -0.12481855
000050 af 9d fc 3d 40 4d b4 bd a4 7e e4 3d 9e 40 e5 bc
       0.12334763 -0.08803797 0.11156967 -0.027984913
000060 f2 f1 2b 3d 8c 3a eb bd e5 36 31 bd 70 47 70 bb
       0.041978784 -0.11485776 -0.043265242 -0.0036663674
000070 fb 86 20 bd f6 52 9b 3b fa c2 8c bd 98 0e a3 bd
       -0.039191227 0.0047401143 -0.06873126 -0.07961768
000080 ea 7f 63 bd 38 40 d4 3d 27 5e 90 3d eb 92 92 bd
       -0.05554191 0.10363811 0.07049208 -0.07156929
000090 81 cd 87 3d 58 cc 81 3b 9b 08 8f 3d 49 4a 45 bd
       0.06630994 0.0039611273 0.06984063 -0.048166547
0000a0 3a 14 83 bd 73 17 8d 3d 1d c6 66 3c 85 d7 91 3d
       -0.06400342 0.06889238 0.01408532 0.07121185
0000b0 da ca af bd a7 dc 39 bd 6c a3 a7 3b 0e 8d 66 3d
       -0.08583613 -0.045376446 0.005115917 0.056286864
0000c0 b2 05 23 bc 86 45 84 3c 53 11 f0 3d c8 c3 cc bd
       -0.009950088 0.016146433 0.11722054 -0.0999828
0000d0 fb 27 c5 3b 8e 68 90 3d 73 e4 97 bd 6d 05 d4 bb
       0.006016729 0.07051192 -0.0741662 -0.0064703734
0000e0 95 47 08 bc 33 98 40 bd 21 e4 ea 3d 26 7b 88 bd
       -0.008317848 -0.04702015 0.114692934 -0.06664114
0000f0 7e b7 f4 3c ca a8 c3 bd c7 d6 13 3c a0 b0 aa bc
       0.029872652 -0.09553678 0.009023375 -0.020836174
000100 b9 72 50 3d 52 7e 08 be 51 d8 c8 3c fc 23 bb bd
       0.050890658 -0.13329437 0.02451721 -0.09137723
000110 cb 22 bf 3d 60 83 d6 bb 24 d4 71 bd e7 58 8b 3d
       0.09332808 -0.006546423 -0.059040204 0.06804066
000120 16 b6 da bd bd af eb 3d 57 8f 1f bd 77 71 7c bd
       -0.106792614 0.11508129 -0.03895506 -0.061631646
000130 29 0e d3 bd 5f c6 f1 3c 29 68 a0 3b 14 07 68 bd
       -0.10305435 0.029513536 0.0048952294 -0.056647375
000140 0a f1 46 bc 37 f6 e8 bd 1b 57 01 be 68 9c e1 bd
       -0.012142429 -0.11375087 -0.12630884 -0.1101616
000150 9d 0e 27 bd 78 77 ea 3d 0b 58 36 bd d5 2d db 3d
       -0.04078542 0.11448568 -0.044517558 0.10702101
000160 2f bb b4 3d e5 6d 04 be f4 6b 0a bd be e8 99 bd
       0.08824765 -0.12932546 -0.03379436 -0.07515095
000170 02 26 02 3d 61 90 af bd 30 87 6a 3c db 6e 45 bd
       0.03177453 -0.0857246 0.014314458 -0.048201423
000180 3e 94 c0 bd 32 ba 34 3d 03 ee 0f bc ca 6a 93 bd
       -0.09403275 0.044122882 -0.008784774 -0.07198103
000190 9a 1b 3b bd 5f d8 a3 3d 51 9e cf bc 22 74 b2 3d
       -0.04568062 0.08000254 -0.025344046 0.08713557
0001a0 f0 a5 0b be 95 1c 03 be 86 b9 71 bd 93 0c 87 3c
       -0.13637519 -0.12803872 -0.05901482 0.016485488
0001b0 9f c2 ec 3d b9 15 e7 3b 80 1a b5 3d a3 69 8c 3b
       0.115605585 0.00705215 0.08842945 0.004285054
0001c0 4d 92 00 be f1 95 94 bd dc aa d6 3d d1 78 7f 3d
       -0.1255581 -0.072551616 0.104818076 0.06237108
0001d0 0e b8 1f bd 69 73 c4 3d 6b 85 f0 3d 45 e9 c4 3d
       -0.038993888 0.09592325 0.117441975 0.09614805
0001e0 3f 69 39 bd d3 5b 1e 3d 73 1f d3 3c 64 46 9a bd
       -0.045266386 0.03866179 0.025771832 -0.07532957
0001f0 5e 41 9f 3c b8 03 cf 3d 06 b0 e5 bd 5e a5 74 3d
       0.01944035 0.10108131 -0.112152144 0.05972802

enc.layers.0.linear2.weight f4 [64, 128]
000000 fa c0 98 3d 97 08 03 bd c8 4c f3 3c d8 73 4e 3d
       0.07458682 -0.031990614 0.029699698 0.050403446
000010 65 59 53 3d 5b 42 ad 3b a0 51 9c 3d 49 f3 5a bd
       0.051598925 0.005287451 0.07632756 -0.05345467
000020 9c d9 54 bd b2 18 f8 bc d1 14 77 3d 3a 93 36 3d
       -0.05196534 -0.030285213 0.060322586 0.044574
000030 98 e7 9a 3d cf f4 54 bc d2 c9 90 ba 65 c4 9b 3d
       0.07563704 -0.01299782 -0.0011046475 0.07605819
000040 e5 b9 94 bc 23 53 18 3d f0 85 e3 3c 5b bc 63 3d
       -0.018155048 0.03718866 0.027773827 0.05559955
000050 dc 6b 99 3a 45 92 22 3d 8e 5d 79 3c 94 49 55 bb
       0.0011705118 0.039690275 0.015220059 -0.0032545077
000060 3c b4 7c bd 1a bb 26 3d 19 b9 55 bc b0 91 52 3d
       -0.061695322 0.040705778 -0.013044619 0.05140847
000070 1e f4 51 3c d3 f6 91 bc a7 41 00 bd ec 12 85 3d
       0.01281455 -0.01781789 -0.03131261 0.0649775
000080 67 43 32 bd d1 e4 1b bd e2 a6 8c bd 0c 55 d6 bd
       -0.04352131 -0.038060013 -0.06867768 -0.1046544
000090 b1 a9 bf bd 7e 9b 73 bd a1 c7 81 3d 4d 69 a4 3d
       -0.09358538 -0.05947446 0.06336904 0.08027897
0000a0 51 f6 d9 bb 45 b5 92 bd d6 03 4b 3c 5b 1c 57 3c
       -0.0066516777 -0.07163481 0.012391051 0.013129319
0000b0 f4 6f 66 bd 35 e9 94 bd 2d 55 3e 3c 28 ad 28 bd
       -0.05625911 -0.07271043 0.011616987 -0.04118076
0000c0 dd 80 c6 bd a7 ba 63 bd 8a 68 26 3d e6 9f 53 bd
       -0.096925475 -0.055597927 0.04062704 -0.051666163
0000d0 74 eb a2 bd 40 21 bd bd 2e dc cd bd a0 a4 aa bd
       -0.07955065 -0.092348576 -0.100517616 -0.08332181
0000e0 a1 57 55 bd dd 8a b3 3d e0 cd 97 3b a8 ce c6 3c
       -0.052085523 0.087667204 0.0046326965 0.024268463
0000f0 e5 58 4c 3d b1 fd bf bd 86 05 02 3d bd 89 94 bd
       0.049889464 -0.0937456 0.03174355 -0.07252834
000100 ea a4 b5 bd bd cd 98 bd 45 13 7a bd 0e 22 38 bd
       -0.088693455 -0.074611165 -0.061053533 -0.044954352
000110 03 4c 3c 3c eb ea 83 3d 60 39 33 bd 3f af e2 3c
       0.011492732 0.064412914 -0.04375589 0.027671454
000120 bb 92 df bc bf c9 b4 bc 94 88 99 bd c0 80 4f 3d
       -0.027291646 -0.022068856 -0.07496753 0.050659895
000130 c3 1e b1 bc 0c e7 97 3c ce cc fd bc d6 b1 00 3d
       -0.021621114 0.018542789 -0.030981448 0.031419598
000140 04 07 cc 3b 6d 52 f8 3c 33 a6 a2 3d 4c 95 c1 bd
       0.0062264223 0.030312741 0.07941856 -0.09452304
000150 55 b3 0e 3d df d5 c1 bd bc 61 56 bc b8 ab 91 bd
       0.034838993 -0.09464621 -0.013084825 -0.07112831
000160 23 e9 c3 bd b1 7a 8d 3c f9 a7 09 3d 90 c7 a9 3d
       -0.09565952 0.017270418 0.033607457 0.08290017
000170 a3 59 c7 bd f4 07 84 3c ee fb 80 bd 59 27 94 3d
       -0.09733894 0.016117074 -0.06298052 0.072340675
000180 69 5d 2c bd d0 33 30 bb fc 63 6d bc 73 f5 8d 3d
       -0.04208127 -0.0026886351 -0.01448917 0.06931581
000190 75 3d 19 bd 9e 9c d5 3b f1 27 69 3c 5e f2 6a 3d
       -0.037412126 0.0065189144 0.014230714 0.057360046
0001a0 10 ab 35 bd 61 e5 d3 3c ae b9 e6 ba 4e 74 3e bc
       -0.04435259 0.025866212 -0.0017602944 -0.011624409
0001b0 9f df 49 3d bc 5e 78 3c 37 6b 15 bd 01 f9 61 3c
       0.049285527 0.015159305 -0.0364792 0.013792277
0001c0 65 fa b7 3c b7 28 f6 3b 45 67 71 bd c3 5a 2d bc
       0.022458265 0.007512178 -0.058936376 -0.010580721
0001d0 7d c1 bc bd 84 a8 5f bd ed 5b 90 3d ac e2 59 3d
       -0.092165925 -0.05460407 0.070487835 0.053194687
0001e0 74 15 bb bc 2a 06 30 bd a7 e1 e8 bc 29 f6 81 bc
       -0.022837378 -0.04297463 -0.028427912 -0.015864449
0001f0 30 98 18 bd 5b ee df bc 40 31 8a 3d 37 14 90 bd
       -0.037254512 -0.027335336 0.06747675 -0.07035106
000200 aa c2 5b bd e3 20 7e 3d a4 4e 93 bd 87 4a 5a bd
       -0.053652443 0.062043082 -0.07192734 -0.05329373
000210 f8 37 68 bb 1f 55 81 3d 5b f1 99 3d db cc 83 bd
       -0.003543375 0.06315064 0.07516738 -0.064355575
000220 c5 f0 ab bd 61 e0 89 bd bd 6f 92 bd 59 a1 9e 3c
       -0.083955325 -0.0673225 -0.07150219 0.019364046
000230 b4 33 42 bd 1a 5f 92 bc 24 73 8b bc df 75 21 bd
       -0.04741259 -0.017867614 -0.017022677 -0.03941905
000240 fc 4e 19 3c 80 14 a9 3c 6e cd 93 3d 04 ed 9b 3c
       0.00935721 0.020639658 0.07216917 0.019033916
000250 57 eb ba 3d bb af 1f 3d da 44 3a 3d da 57 94 bc
       0.09126919 0.03898595 0.04547582 -0.018108297
000260 93 0d 60 3b e8 c1 15 bc 98 c5 b2 bc 2f 86 cd bd
       0.0034187778 -0.009140469 -0.021822736 -0.10035359
000270 fd 7e a8 bd c0 d5 b1 3c cf 2d 95 bc 68 4e b4 bd
       -0.08227346 0.02170837 -0.01821032 -0.08804017
000280 35 ee 3f bc 63 2a 26 bd 15 12 ef 3b 63 26 45 bc
       -0.011714508 -0.040567767 0.0072958567 -0.012033078
000290 ce 27 8a bd 6a 12 96 bd f9 b0 27 3d 8a 35 85 3c
       -0.067458734 -0.07327731 0.04094026 0.016260881
0002a0 54 71 9d bd 3e 3f 19 3d af 5f a3 3d c3 5d 86 bc
       -0.07687631 0.037413828 0.079772346 -0.016402131
0002b0 01 c7 44 3d d0 c1 c9 bd 25 93 df bc 1c ea 9d 3d
       0.048041347 -0.0985142 -0.027291844 0.077106684
0002c0 ad f2 b6 bc 36 b0 92 bc 4b b8 00 bd c2 c3 8c 3b
       -0.022332514 -0.01790629 -0.031425755 0.004295797
0002d0 3c 74 63 bc 60 c7 70 3c e7 65 bc bd 15 59 cb bd
       -0.013882693 0.014695972 -0.09199124 -0.099291004
0002e0 ea e5 05 bd 51 44 fb 3c 0d 30 2f bd 0f 82 89 3c
       -0.032689966 0.030672224 -0.042770434 0.01678565
0002f0 52 3e 8b 3d e1 e5 16 bd 7b d1 7f bb 23 80 62 bb
       0.06798996 -0.036840323 -0.0039034772 -0.0034561239
000300 84 da 30 3d 22 c1 60 3d 25 65 51 3c cc 7e 3f 3d
       0.043177143 0.054871686 0.012780462 0.046751782
000310 bf d0 48 bd 5c 6d 92 bc c6 cb d5 3c be 78 cb bd
       -0.0490272 -0.017874412 0.026098143 -0.09935139
000320 b7 81 24 3d b3 64 68 3d e9 68 b8 bd 53 26 4c 3d
       0.04016277 0.05673666 -0.09004385 0.049841236
000330 e8 36 74 3c 56 23 f7 bb bf 99 0c 3d 31 85 27 bd
       0.014905669 -0.007542054 0.03432631 -0.040898506
000340 94 7f 3b 3d 2f 91 4a 3d 9a b0 31 bd 94 7d 2d bd
       0.045775965 0.049454864 -0.04338131 -0.04235609
000350 cc da a1 bd d6 0b 35 bd 9c 05 4d 3c 60 d0 a2 3d
       -0.0790306 -0.04420074 0.012513544 0.079499006
000360 34 4a 8f 3c 42 0c 08 bd f9 1e a8 bc cb 2e 16 3d
       0.017491437 -0.033214815 -0.020522581 0.03666572
000370 33 4c 95 bc 36 f1 20 3d 62 c8 57 3c 78 5a 49 3d
       -0.018224811 0.039292537 0.013170334 0.049158543
000380 b3 fc 8b bd b7 35 96 3d e8 d9 1a 3d 9d c5 ef bc
       -0.06835308 0.07334464 0.037805468 -0.029269034
000390 0a 15 8a bd 3e d4 1c bd 48 d0 80 3a c7 c5 42 bd
       -0.06742294 -0.038288347 0.0009827698 -0.047551896
0003a0 66 24 1b bd 02 e8 b8 3d a6 a0 93 3d 79 fe 9e bd
       -0.03787651 0.09028627 0.07208376 -0.077633806
0003b0 a0 a4 17 3d 6b be d0 bc fc 24 5c bd 37 68 e4 3c
       0.037022233 -0.025481423 -0.05374621 0.027881725
0003c0 fa 98 da ba d0 5d 16 bd f2 18 cf bd 97 ee 96 3d
       -0.0016677671 -0.03671056 -0.1011218 0.07369726
0003d0 4b ab 5a bd 37 1a 74 bc 6b 7c 91 3d 38 ac 6a 3c
       -0.053386014 -0.014898828 0.07103809 0.014323287
0003e0 5a 30 32 3c 15 02 8c 3d 8c 06 68 3d fe a7 6a 3d
       0.010875786 0.068363346 0.05664687 0.057289116
0003f0 ca 2b a3 3d 43 a2 0d 3d 8d 18 58 bd 95 07 eb 3c
       0.079673365 0.034578573 -0.05275779 0.028690139

enc.layers.0.linear2.bias f4 [64]
000000 b4 a5 4f 3d 35 ec 43 bc e0 2c 40 3d e0 34 b9 bb
       0.050695136 -0.011958172 0.046917796 -0.005652055
000010 dc 1d 37 bd 1b 4e 19 3c c2 b6 c6 bc cc 8a 73 3d
       -0.04470621 0.009357001 -0.024257068 0.05945854
000020 0c 01 25 bd 4a 19 a2 bd f5 08 31 3c 0b f7 e5 bc
       -0.0402842 -0.0791498 0.010805358 -0.0280719
000030 37 c5 b6 bd 3c 37 16 3d 39 cf e9 bc f3 45 57 bd
       -0.089243345 0.03667377 -0.028541194 -0.052556943
000040 d2 ec a6 3c 0f 1c 07 bd a7 32 2d bd 25 50 30 bd
       0.020376597 -0.032985743 -0.042284634 -0.04304518
000050 a1 04 23 bc 16 08 3c bd 6c 4d 01 3d 23 1f 06 bd
       -0.009949834 -0.04590615 0.031567976 -0.032744538
000060 5b 5c 3a bd 40 d9 b7 bc 41 d5 fe bc b7 de 7f bd
       -0.045498233 -0.02244246 -0.031107547 -0.062468257
000070 d9 50 55 3d 2f 7e 0c bd 4d 02 a7 bd 05 3d a7 3c
       0.052079055 -0.034300026 -0.08154736 0.020414839
000080 47 46 7b 3c 1e b0 ea bb 48 03 0b 3d c9 2f b9 bd
       0.01533658 -0.007162108 0.033938676 -0.090423174
000090 94 9e ad 3d d0 09 4e bd 09 f8 22 bd cb b0 fb bc
       0.08477512 -0.050302327 -0.039787326 -0.03072395
0000a0 21 d9 d7 bc b8 97 a9 3d 01 0b 4f 3d 67 0a 66 3d
       -0.026348652 0.08280891 0.050547604 0.056162264
0000b0 02 f6 78 bd b9 3e c3 bd 5e 6c 03 bd df c4 9a bd
       -0.060781486 -0.09533448 -0.03208577 -0.075570814
0000c0 91 f2 41 bd d9 69 6e bd 93 24 af bd ed 13 69 bd
       -0.04735047 -0.058206413 -0.08551898 -0.05690377
0000d0 bf 96 dd bc 47 ed 9d bd ed 3b 69 bc be 96 54 3a
       -0.02704942 -0.07711273 -0.014235479 0.00081096205
0000e0 73 1d 86 bb 4b 13 4c bc 68 4e 64 bd d0 64 a7 3d
       -0.004092866 -0.012455772 -0.055738837 0.08173525
0000f0 a7 b9 52 bd c8 03 f2 3c 2c f3 5b 3d ef 58 88 3c
       -0.051446583 0.029542819 0.053698704 0.01664397
