best_lstm.pt (torch, 75548 bytes, 5 tensors)

rnn.weight_ih_l0 f4 [256, 5]
00000000: 59e9 15bd 16b6 803c ec2e 103e 428c debc
00000010: e292 bb3d 6ab3 87bb 1878 83bd d252 323d
00000020: 4019 79bc 2487 b9b9 9203 9e3d 45d4 e33c
00000030: 6c52 1a3c e0bf 27bd d85e febc 9079 f03b
00000040: 9612 b03c 33af 033e a1dc ce3c 4b5b 2abd
00000050: a709 1c3c 6a6f 8a3c 28aa ec3d 79a5 5dbd
00000060: 084d 833d abe9 cabb 19e0 ea3d a8da 83bd
00000070: 76d8 e63d 3552 c23d d6b5 6c3c 418a a13a
00000080: 2661 82bd c877 0dbc 270e a93d d1b9 9cbd
00000090: f886 ebbd c47a 84bd e37f 333d 0737 37bc
000000a0: de2d c83d 3fce febc 9209 2b3c 28d8 593d
000000b0: 614b c63c 0f01 a53d 6bdf 963c 3a96 c43c
000000c0: d074 87b9 4e75 6dbb 82b7 c33d 8971 f9bc
000000d0: 86a8 0ebd 6239 7a3c 6a15 c3bc a236 acbd
000000e0: e741 823d 3503 813d 99af 813d dee3 3fbd
000000f0: 61ee 74bc e35b 993d 29bf 02bd 209f cdbc
00000100: 616e 99bd 5bb3 1d3d acc7 08be 8c7a e6bd
00000110: e572 723c 64cd bdbc 858f 153e 47d9 143e
00000120: e6ce b5bd f129 0dbd 4513 88bc 3baa 68bc
00000130: 6053 1abd 83cf 6a3c ed4a ca3d 04f9 9a3b
00000140: d793 5f3d 2db3 2e3b d0e4 873d 5353 133d
00000150: 447b d2bb 6d40 f8bb db9e e23b 9a9e 84bc
00000160: 4289 2bbd 04ba 33bd d471 92bd 7517 0f3e
00000170: 8200 9f3a 1ee3 a0bd eef8 55bd a5d0 e53c
00000180: 2cab d0bc 91a5 7f3d 6e84 e6bc 4b0a 563d
00000190: bdf5 5b3d f16f ec3c 517f c13d 65b6 793d
000001a0: f5b8 df3d 78b8 bebd b88f 4c3d 0edc cb3d
000001b0: 440d 8fbd 2eae 323b 73d8 5a3d cec2 663d
000001c0: 857b 043c 7bef 8a3c 6b9d b6bd 364b fcbc
000001d0: f4c9 3ebd 37cd 663d 855e 823d 7bc5 813c
000001e0: 93a6 9cbd 7bff 6a3d 5170 babd 1023 ff3c
000001f0: 3d62 613c cab8 6b3d 5176 f33d 3463 36bd
00000200: 05d1 db3d 08b0 253c 958a 84bd 28a2 0bbd
00000210: 0b80 7fbd e1b4 d6bd 036f a1bd 745a 88bc
00000220: f817 a03d f69f 163e 4394 a93d 609b 2d3d
00000230: e0b0 1abd 4caf 4abd 5f3d 953d 4dbd c2bd
00000240: bf57 bfbd ab1d 76bd ed79 053e 9955 0a3e
00000250: 6e37 ef3d f583 61bd ec6a f73d 4b0e ee3d
00000260: db01 953d 3256 06bd b34b be3d 2581 96bc
00000270: cb4a f0bc 1a74 a2bb 1128 b13c 4e73 e33d
00000280: e5b7 413d a4c9 a93d 6197 033e 9e54 d4bd
00000290: 00e1 cf3d 5231 653d c001 b33c 9e17 283c
000002a0: 8c2f 0b3e f762 d0bb 059a 37bd 8979 5abd
000002b0: 8eb1 bfbd d92a 793c d3b6 ef3d cb03 a63d
000002c0: 4e7c 073d ef41 ec3c 93ab fdbc 0517 4f3d
000002d0: 4634 c8bc 40ad 143d 401c c43d 2ccd ff3d
000002e0: 7b23 593d b32e c43d 44a1 b8bc b0df 1dbd
000002f0: 378a d13d 8a5b 713d a9dd cb3c 6ffd a3bc
00000300: 0c22 c83d 73c5 dcbb b343 acbd 611c 4f3d
00000310: 0167 e6bc e3dc 8bbc dfce d63d 9127 343d
00000320: 9cfb babb 9fe9 663d 48ac d63d 947a 8f3d
00000330: 23aa 9a3d d053 ba3c 7d6d f0bd c28e 983d
00000340: a388 7dbd 8f40 c03c 6b11 e93d 704e a83d
00000350: 7c7d c63d a17d 083d 72d0 acbd 0bb8 de3c
00000360: 44cb e8bd 1c5a c8bd 65a8 95bb ed8d 033d
00000370: 97bf dfbd 72f8 e5bd 3d0c a43d f2c4 353d
00000380: 012d 91bd 160e b03c 0501 203c 474b 4cbd
00000390: d67d 84bc 9376 c43d 1707 91bd 9021 e43d
000003a0: c012 ffbd b291 c03d d16e 0c3d 99ed f63d
000003b0: 25af 613d 636e b23d f39b fd3d 085b 053d
000003c0: 8c44 32bd b315 dfbd 7583 d5bd ecf5 ca3b
000003d0: e91c c6bd 7ad4 c4bd adbc 683d 2c4b c9bd
000003e0: 0ec0 a3bd f19b b3bd ff67 fe3d cb22 623d
000003f0: 059e 8e3d 34bc c4bd 825f 5ebd 3f6e 133d
-0.03659949 0.015711825 0.140804 -0.02716649 0.09158875 -0.004141261 -0.064193904 0.043536015
-0.015203774 -0.00035386637 0.07715525 0.027811179 0.009419065 -0.04095447 -0.031051084 0.00733871
0.021493237 0.12859802 0.025251688 -0.04159097 0.009523786 0.01689883 0.11555892 -0.054112885
0.06411177 -0.006192406 0.114685245 -0.0643819 0.112717554 0.09488336 0.01444765 0.0012324528
-0.06366186 -0.008634515 0.082546525 -0.07652629 -0.115003526 -0.06468728 0.043823134 -0.011182553
0.097743735 -0.031104205 0.010439293 0.05318466 0.024205865 0.080568425 0.01841708 0.023997415
-0.0002583624 -0.003623325 0.09556486 -0.030449646 -0.034828685 0.01527247 -0.023813922 -0.08408858
0.06360226 0.0629944 0.06332321 -0.04684817 -0.014949412 0.07488229 -0.031920586 -0.02510029
-0.07491756 0.038501125 -0.13357419 -0.11253843 0.014797901 -0.023169227 0.1460553 0.1453601
-0.08877353 -0.034463827 -0.01661075 -0.014200742 -0.03767717 0.014331701 0.09877572 0.004729392
0.05458435 0.002665709 0.066354394 0.035968136 -0.006423386 -0.0075760395 0.0069159097 -0.016188908
-0.041878946 -0.04387857 -0.07150617 0.13973792 0.0012130889 -0.07855819 -0.05223935 0.028053591
-0.025472246 0.062413756 -0.02813932 0.05225591 0.05370115 0.028861972 0.09448112 0.06096496
0.1092395 -0.09312528 0.04994175 0.099540815 -0.06984952 0.0027264464 0.05342908 0.056338124
0.00808609 0.016959896 -0.08916744 -0.030797582 -0.046579316 0.056348052 0.063656844 0.015841236
-0.07648959 0.05737255 -0.09103454 0.031144649 0.013756332 0.057549275 0.118878014 -0.0445282
0.10733227 0.01011277 -0.06471745 -0.03409019 -0.06237797 -0.10483719 -0.07882502 -0.016644694
0.07817072 0.14709458 0.08280232 0.042384505 -0.037766337 -0.049483582 0.07287096 -0.095087625
-0.09342908 -0.060086887 0.13034792 0.13509215 0.11680494 -0.055057485 0.120809406 0.1162382
0.072757445 -0.032797046 0.09291782 -0.018372128 -0.029332539 -0.004957688 0.02162555 0.11105977
0.047294516 0.08290413 0.12850715 -0.10367702 0.10150337 0.05595524 0.02185142 0.010259537
0.13592356 -0.006359454 -0.04482462 -0.05333856 -0.09360038 0.01520797 0.11704793 0.08106192
0.03307753 0.028840033 -0.030965602 0.050559063 -0.024438988 0.036298037 0.09575701 0.12490305
0.053012352 0.0957922 -0.022537835 -0.038543403 0.102314405 0.05892519 0.02488597 -0.020018307
0.09772119 -0.006737405 -0.0841135 0.050564174 -0.028125288 -0.0170731 0.10488676 0.043983046
-0.0057062637 0.056375142 0.10482079 0.07005802 0.07551982 0.022745043 -0.11739633 0.07449104
-0.061897885 0.023468284 0.11380275 0.08218086 0.09691903 0.033322934 -0.08438195 0.027187368
-0.11366895 -0.09782812 -0.0045671933 0.032117773 -0.10925215 -0.11229028 0.08010147 0.044377275
-0.07088662 0.021491092 0.009765868 -0.049876478 -0.016173285 0.09592929 -0.070814304 0.11139214
-0.12454748 0.09402789 0.03428537 0.12057037 0.05509867 0.08712461 0.123832606 0.032557517
-0.043522403 -0.10892811 -0.10425464 0.006193867 -0.09673483 -0.09610839 0.05682056 -0.09828791
-0.07995616 -0.08769978 0.124221794 0.055208962 0.069637336 -0.096062094 -0.054290302 0.03599381

rnn.weight_hh_l0 f4 [256, 64]
00000000: 73db d43d e77d 793d a7d3 2d3d b296 ac3d
00000010: e2ef e93d ee09 ae3c f62f 593d 5039 78bd
00000020: 0639 323d d0ee 19bd 56db 02bd 4569 053e
00000030: 6c32 0c3e 2e7b 8a3d 235b 17bd 0003 60bd
00000040: b839 893d 8a60 dbbd 1897 5c3d 9c8d 9f3d
00000050: 8173 413c 7e77 c8bc d2cc 49bd 3196 eabd
00000060: 0979 5d3d 96b4 7abd f284 d73d 750e 283d
00000070: e9b1 003c de90 763d d4c6 8bbd a997 0a3e
00000080: a5cf ce3c 2474 04be 939f d03d ac1b f73d
00000090: 0433 323d fe55 b3bd 8c87 e53c 33e7 2abc
000000a0: 6f12 dbbc c225 b8bd 338d 5a3d a8b8 f5bb
000000b0: 6bbb 0ebd 700b b23d 7b37 833d f545 debd
000000c0: b0d5 d9bc 5b50 dcbd fa32 ec3c 77b2 dabd
000000d0: 6054 81bd e91d 1f3c be6c 143d fa02 aa3c
000000e0: a853 bc3d a13f 11be 3938 3c3d 07da 8cbc
000000f0: ae4d 283d 8589 8fbd 3e0a 78ba 4a8b d13c
00000100: 2294 5b3d 2365 16bd b874 6fbb 6295 53bd
00000110: 8bf6 263d 91f9 15be 3cb2 59bd daa7 323d
00000120: bf19 a1bd 93b6 a13d 7589 febd 71b5 cd3d
00000130: e977 033e 4877 013d 7b7d 81bd 5b8a 9dbd
00000140: fb84 e23c 1973 c43d 586c 2dba 9b81 813d
00000150: 883b b0bd d0f6 183e 2d73 843d dd2e 03be
00000160: 63f1 18bd e167 acbb 5b04 7cbd f04e 673c
00000170: b6c7 14be d461 633d 511f 75bd 7fc9 803c
00000180: 6e21 863d d36a 833d cb20 adbc d012 ecbc
00000190: 3df5 e63c 54f5 593d cdf7 043e 23cd b53d
000001a0: 974e d9bd 01a4 dabc c601 363d 83fa c7bd
000001b0: 301e 783d ec72 bfbb db87 9cbb 9f88 c8bd
000001c0: 504b a33d 92c0 11be 170f d9bd dde4 de3d
000001d0: be89 fbbd ceb0 8fbc a2ea b7bd f7b0 b2bc
000001e0: 14cd 543d b2d2 b5bc eafd 813d cb9a fc3d
000001f0: 33c8 0f3e 18e7 313d 7d0b a13c 379e f23d
00000200: 5aec 503d 6103 d63c db9f 083e 9a70 93bc
00000210: efc4 16bd ed65 b1bd 241e dd3c b6c1 983d
00000220: 62e8 b53d a572 15bc 3776 5e3d 3e59 393c
00000230: ff06 a0bd 486c d6bc b5f4 41bd c07f 11be
00000240: 9b2d ec3d 1387 243d 627c c83d 6bcc 8fbc
00000250: 029b 113e 03ff 6dbc 4d92 8c3d 8d9c 8e3c
00000260: b3f3 3dbd ea47 ff3c f919 8dbd 3ab2 9fbd
00000270: e20e 89bd 0fc8 ec3d 8af3 a8bd 955f 7b3d
00000280: 9e93 d43d 00ef 8dbc 797e 67bd 87ea fdbd
00000290: ca45 553c f5e8 f93c 0893 9a3d df8d 4c3d
000002a0: 1bdf 1f3c f093 e7bd 12f6 183d a34e 2dbd
000002b0: 772c 223d 1bf7 af3b 8ffb 10bc 3627 8c3d
000002c0: 31c6 1ebd 8a6b b8bd ae1e 813a a787 dd3b
000002d0: a405 36bc b961 79bc dd9d e13d a0a9 b93c
000002e0: f10e 7c3d 3170 ecbd 4475 893d 31cf 76bd
000002f0: ca12 07be 4fea d7bc aa41 f2ba 9e1d d83d
00000300: 839e 0fbe 6a73 e1bc 4b15 003e 9329 c23d
00000310: 774f 143e 509c 54bd 89bb 963a c5aa 33bd
00000320: 2562 a7bd 37d6 7d3d e3bb 81bd affc 52bd
00000330: 6cff 033d 9fbb fe3b 22b5 9e3d 50bb 3a3c
00000340: 39b1 763d 46a9 46bd e1df 063e 7de8 81bd
00000350: 4f7b 673b ae7d 97bd 4282 073c 76de d53d
00000360: 8309 823d 3d82 b3bd ac04 e0bd e7a8 b63d
00000370: 665d e5bd a062 c83c 342d a2bc fe37 1bbd
00000380: 603b 2fbc c490 b5bd 338a 2abd 8819 a33d
00000390: 2211 cebc e264 933b a098 8abc a4ee 44bd
000003a0: d20c bcbd 5f77 d1bd 86c2 adbd 5172 de3d
000003b0: bfd0 fa3c 5988 cdbd 00ad b6bd 2972 92bd
000003c0: 681f c93d 00db e5bd 659c 293d e848 9538
000003d0: 3025 2fbc a5c0 913d 5379 2d3d 9697 b7bd
000003e0: 9ce5 d03d a2b7 913d e0f6 a93d a107 cf3c
000003f0: f669 c33d f669 0d3e ba39 323d 3817 cc3d
0.10393419 0.060911085 0.042438176 0.0842718 0.11422707 0.02124497 0.053024255 -0.060601532
0.043511413 -0.037581265 -0.031947456 0.13028438 0.1369111 0.06761776 -0.03695215 -0.05469036
0.06700462 -0.10711773 0.05385503 0.07790682 0.011807323 -0.02447104 -0.049267597 -0.11454428
0.054070506 -0.061207376 0.10523404 0.041029412 0.007854917 0.06019675 -0.06825033 0.13534416
0.025245497 -0.12934929 0.10186686 0.12065825 0.043505684 -0.08756636 0.028018735 -0.010431099
-0.026742188 -0.08991577 0.053357314 -0.0074988194 -0.034846704 0.08693588 0.064070664 -0.10853187
-0.026591152 -0.10757514 0.028832901 -0.10678571 -0.063149214 0.009711721 0.036236517 0.020753372
0.09195644 -0.14184429 0.045952056 -0.017193807 0.041089706 -0.07008652 -0.00094619754 0.025579114
0.053608067 -0.036717545 -0.0036538076 -0.051656134 0.040762465 -0.14645983 -0.053148493 0.043617107
-0.07866239 0.078961514 -0.124285616 0.10044373 0.12838711 0.031607896 -0.063227616 -0.07692405
0.0276513 0.09592266 -0.0006615571 0.063235484 -0.08605105 0.14937901 0.064672805 -0.12810846
-0.03733958 -0.005261407 -0.06152759 0.014117941 -0.14529309 0.055513218 -0.05984432 0.01572108
0.06549345 0.064168595 -0.021133801 -0.028817564 0.02819311 0.05321248 0.12985153 0.08877017
-0.10610693 -0.026689531 0.044435285 -0.09764578 0.060575664 -0.005842557 -0.0047769374 -0.097916834
0.07973349 -0.14233616 -0.10598581 0.10883496 -0.122821316 -0.017540362 -0.089802995 -0.021812899
0.05195339 -0.022195194 0.063472584 0.12334212 0.14041214 0.04343328 0.019658798 0.11846583
0.051006652 0.026124658 0.1334223 -0.017998029 -0.036808904 -0.08662019 0.026991911 0.074588224
0.08882214 -0.009121572 0.054311957 0.011312781 -0.078138344 -0.02617468 -0.04735251 -0.14208889
0.11532136 0.04016788 0.09789349 -0.017553529 0.14219287 -0.014526132 0.06863842 0.017408634
-0.046374988 0.031162221 -0.068897195 -0.07797666 -0.06692292 0.11561596 -0.082495764 0.06137045
0.10379718 -0.017325878 -0.056517098 -0.12398248 0.013017127 0.03050659 0.07547575 0.049939986
0.009757782 -0.11307514 0.037344046 -0.042311322 0.039593186 0.0053700334 -0.008849039 0.068434164
-0.03876323 -0.090048864 0.0009851062 0.006760556 -0.011109743 -0.015221053 0.11016438 0.022663891
0.061537687 -0.11544836 0.0671182 -0.060256187 -0.13190761 -0.026356844 -0.0018482704 0.10552524
-0.14025311 -0.027520854 0.12508123 0.09480586 0.14483438 -0.051906884 0.0011499982 -0.04386403
-0.081730165 0.06197187 -0.06334665 -0.05151051 0.03222601 0.007773831 0.07749392 0.011397198
0.060227606 -0.048501275 0.1317134 -0.06343172 0.00353213 -0.073970184 0.008270802 0.10442822
0.063494705 -0.08765075 -0.10938391 0.08918934 -0.11199455 0.02446109 -0.019796945 -0.037895195
-0.010695308 -0.088655025 -0.041635703 0.07963854 -0.025154654 0.00449811 -0.01691848 -0.048079148
-0.09182133 -0.10227846 -0.08484368 0.10861648 0.030617116 -0.10035772 -0.08919716 -0.071506806
0.098204434 -0.112234116 0.041408915 7.1184535e-05 -0.010690019 0.07116822 0.042352032 -0.089644596
0.102000445 0.07115103 0.08299041 0.025272192 0.09541695 0.13809952 0.043512084 0.09965366

rnn.bias_ih_l0 f4 [256]
00000000: 5898 a43c 5f89 093e b2d8 1cbd ed52 9bbd
00000010: abb0 5bbd d09f 153b bdf3 d43d 7733 87bd
00000020: 2013 4d3d 1a71 a8bd e805 8f3d d82f 75bd
00000030: 210b 793d d04a 9d3d 831a 173e f7df 243d
00000040: 4913 7a3c 0f9d 8abd 6062 b1bb dd38 0f3e
00000050: 2531 283d d55f 353d 77a3 613d 0011 7a3d
00000060: 2fdd e5bd e788 063e e9ee 353d 0058 103d
00000070: 50a1 933b 8002 af3c 989e 2e3c d33a babc
00000080: 5178 4bbc 7383 bdbd 70c9 98bd 55d8 2bbd
00000090: 437f 7bbd 8601 24bd 9bba d0bc 5e46 a4bd
000000a0: 77c5 b23d 1eae 143b 9d5b a5bd 1b5e 97bd
000000b0: 9e9a 5dbd 2a55 08bd 2ce8 cd3b fb5d a43c
000000c0: 1211 f1bc 425f 903d ca8a 473c 97a1 1abd
000000d0: 3035 c93c f752 adbd e07a bdbb 852f 9b3d
000000e0: ffcb 0dbe a277 f13d 57b4 a63c 70f8 20bb
000000f0: 3dc1 683d 0aee d5bd f133 913d 948c 40bd
00000100: 1ba1 f63d 5322 393d 912b 65bd 4c43 013e
00000110: c177 2d3d bc76 36bd 743a ca3b 000c e53d
00000120: c89c 813d 6239 bb3d f2d3 54bd ca77 c53d
00000130: 6d11 143e ccfd ff3a 3ec6 97bc 7701 57bd
00000140: bc6f 843b 3dfb e7bd c189 acbd fb33 dbbc
00000150: efc9 843d 8c9d e13d 2dae 603c d1ce b33d
00000160: 8ee6 f0bd 6462 c73d 1e77 a83d e261 713d
00000170: 72a6 303d eec1 aabd 04c6 6c3b fb37 b93d
00000180: 3f1e 8dbc 39b1 993d 349a c03b 1f7a 69bd
00000190: 06ca fdbb a069 43bd a4f6 b73c 247a 73bd
000001a0: 11c8 6abd b7b7 cb3d 08a8 db3c 0145 ccbd
000001b0: d097 f43d f28a 7dbc a2fa 80bd 71ea 7c3b
000001c0: 5546 b8bd da65 0fbe 0b81 76bc 54b7 f2bd
000001d0: 8a7a ebbc f9ec 08bd d8e2 a03d bb4c 9ebd
000001e0: 812d 4d3d 4642 96bd 8bb0 463d 6e05 8dbd
000001f0: b6ce fdbd 80b2 8bb8 d40d a0bb 3d40 b43b
00000200: 943c c03b 2018 a83d 3cdd 073e 7bfc 373d
00000210: 34d6 adbc 4c4f 3f3c c0d1 c7bd 7ed7 3c3d
00000220: 8e94 afbd 6563 c43d e122 4e3d 1c44 b93d
00000230: c184 39bd 4728 76bd d625 4d3d 56ee 123d
00000240: 9b79 97bd 2644 a13d 90a5 8a3d f325 7f3d
00000250: 8dd3 c3bd 49f3 0d3e 0b7d 043d 8bcd 83bd
00000260: 1ff6 70bd 4879 883d 78d0 91bd 2da3 253d
00000270: 1428 84bd 00fb ee3d cc4c e7bd 97bc 9f3d
00000280: 2273 6dbd c803 be3d ea41 3e3d d6a6 983c
00000290: 6e5c 08be 4a48 01bd 397b 81bd dd1c aa3d
000002a0: 7524 943d 7c1a 29bd 1511 023e 4196 5fbd
000002b0: 3bf3 8dbd e5ac 5bbd 6489 b53b fe26 bbbc
000002c0: bafe 593c 80bb 8cbd b0d4 6dbd 4a34 9abd
000002d0: ce63 db3d 7a12 6abd d810 c53d 3846 3cbc
000002e0: e5ce 6c3d 70bd 673d c04f d0bd f53a c03d
000002f0: b902 2f3d f763 f33d 5c33 d4bd edd0 d53c
00000300: ae14 6abd 930d 963d 5c1c 19bd 67d4 99bd
00000310: 84a7 783c 6140 dc3c 4265 f2bc c98e 2ebc
00000320: adda 0cbd 70dc 043e a2dc 89bc 4456 e5bb
00000330: f6a4 583c ee96 b53d b4cf f33d e15e a33c
00000340: c437 a93d 3666 5139 8fa0 553c 1e1b 253d
00000350: 8f29 f53c e7f0 f13d 62cb 833c ce5d ab3d
00000360: 44ae 9c3d e81a f43d eeae 9c3d 7d6d e83d
00000370: b809 d03d 5f8c 4d3d 0565 b9bd b3da 02be
00000380: a813 e5bc 982e 213d 9afd abbd 5686 d8bd
00000390: c10b cdbc 9842 8b3d 8e5d 95bd 0aab 353d
000003a0: 2e8e 433d 9c53 6dbd 9c29 5bbb c821 493d
000003b0: 05b9 ecbb b0b5 a63d e204 d0bd 93cf 0d3d
000003c0: 3132 bb3d bcc9 0abe d37a a03d b2b5 293c
000003d0: 3283 afbc ad64 57bd 2a3c 013e f9d3 5f3d
000003e0: 9ac8 483d 0a60 75bd 4575 a2bc 8e30 56bd
000003f0: 2f61 95bd 78d2 0c3c aadc 253d 68ea e63b
0.020092174 0.13431309 -0.038292594 -0.07584176 -0.05363528 0.0022830851 0.10398052 -0.06601613
0.050067067 -0.082246974 0.069835484 -0.05986008 0.06080163 0.07680285 0.14756207 0.040252652
0.015263387 -0.06768238 -0.0054133385 0.13986535 0.041062493 0.044280846 0.055087533 0.06105137
-0.11223828 0.13138162 0.044417296 0.035240173 0.004505314 0.021363497 0.010657929 -0.022733128
-0.012418822 -0.092535876 -0.07460296 -0.041954357 -0.061400663 -0.040040515 -0.025479605 -0.08021234
0.0872907 0.002268679 -0.080741145 -0.07390996 -0.054102533 -0.033284344 0.0062837806 0.020064345
-0.029427085 0.07049419 0.012179086 -0.03775176 0.024561495 -0.0846309 -0.00578247 0.07577423
-0.1384735 0.11790396 0.020349665 -0.0024562143 0.05682491 -0.10445793 0.07089985 -0.047009066
0.12042447 0.04519875 -0.05594975 0.12623328 0.042350534 -0.044546828 0.006171519 0.111839294
0.06328732 0.09141804 -0.05195994 0.096419886 0.14459772 0.0019530593 -0.018527146 -0.05249163
0.00404164 -0.11327217 -0.08424712 -0.026758185 0.06483828 0.11016378 0.013713402 0.087796815
-0.11762725 0.097355634 0.08225845 0.05893124 0.043127485 -0.083377704 0.0036128769 0.090438806
-0.017226337 0.07504506 0.0058777574 -0.05700123 -0.0077450303 -0.047708154 0.022456475 -0.059442654
-0.057319704 0.0994715 0.026813522 -0.09974099 0.119430184 -0.015475022 -0.062978044 0.0038591886
-0.0899779 -0.14003697 -0.015045415 -0.11851373 -0.028744955 -0.03342912 0.07855767 -0.07729479
0.050092224 -0.073368594 0.04850821 -0.06885801 -0.123929426 -6.661285e-05 -0.004884461 0.005500822
0.0058665965 0.082077265 0.13267988 0.04491852 -0.021220304 0.011676621 -0.097568035 0.046103947
-0.085732564 0.095892705 0.050326232 0.09046194 -0.04529262 -0.060097005 0.05008491 0.035871826
-0.07396241 0.078743264 0.0676986 0.06229205 -0.095618345 0.13862337 0.032345813 -0.064356886
-0.05882847 0.066637576 -0.071198404 0.04043882 -0.06452957 0.11668968 -0.11293945 0.077996425
-0.057971127 0.09278065 0.04644958 0.018634241 -0.13316509 -0.03156308 -0.06322331 0.083062865
0.07233516 -0.041285023 0.12701829 -0.054586653 -0.06931158 -0.053631682 0.00554006 -0.022845741
0.01330536 -0.068717 -0.058064163 -0.075295046 0.107123956 -0.057146527 0.09622353 -0.011491351
0.057814498 0.056577146 -0.10171461 0.09386245 0.042727206 0.11884301 -0.103613585 0.0261006
-0.057148628 0.07326808 -0.03738056 -0.07511216 0.015176658 0.026886167 -0.0295893 -0.01065416
-0.034388233 0.12974715 -0.016828839 -0.006998809 0.0132229235 0.08866678 0.119048506 0.019942703
0.082625896 0.0001996987 0.013038768 0.040309064 0.029927043 0.118135266 0.016088191 0.08367501
0.07650426 0.119191945 0.07650553 0.11349008 0.10158104 0.050182696 -0.09052471 -0.1277874
-0.027963474 0.039351076 -0.0839798 -0.105724975 -0.025030019 0.06799811 -0.07293235 0.04435257
0.047743015 -0.057941064 -0.003344155 0.049104482 -0.0072242045 0.08140123 -0.10157181 0.034621786
0.091404326 -0.13553518 0.07835927 0.010358261 -0.021424863 -0.052586246 0.12620607 0.054645512
0.049019434 -0.059906043 -0.01983131 -0.0522924 -0.07293927 0.008595102 0.040493645 0.0070469864

rnn.bias_hh_l0 f4 [256]
00000000: 5d00 23bd 7818 5b3d 2fe1 02bd 081b b93d
00000010: 5270 b13c 332f 463c 9410 d63d 6100 d83d
00000020: 80c7 5e3d 235b 043e d886 2ebd 6d23 2fbd
00000030: a1a1 dd3c eb97 053e b024 ee3d 7c3c f6bd
00000040: 2d9e 06bd d1ce 42bd 811a dc3d 41e8 0f3e
00000050: 0fca 6bbd f755 f13d 4f5e bdbd 5b8c 253c
00000060: d000 54bd 148f 143e 5a71 a5bc 0523 323d
00000070: b035 243d fb1b 263d 26d1 f53d fbb4 3a3d
00000080: 2607 7b3d b71f 413d 0652 54bd b07c 9abd
00000090: b16d 4bbd 78f6 52bd 0660 93bd ef9a 2cbd
000000a0: cd08 f53c b94e aebd 1598 fb3d 6be6 b3bd
000000b0: d8d4 aebd d5c6 1bbd dbb1 793c 7855 133e
000000c0: c62e a2bd 20cf 5f3d 70f5 d6bc 338c cd3d
000000d0: e304 853c 5502 e33d 8b49 bbbd 91d5 113e
000000e0: 78ae b53c db11 9ebd a116 a93d c2c4 acbd
000000f0: 10f7 17bc 3aa7 32bc 2557 08bd 16ae ad3d
00000100: e923 c5bd 9049 58bc 9706 19bd 36c8 2d3d
00000110: e79c 833d 6213 6abd f1d5 d73d 7769 ddbc
00000120: 4db5 da3d 7186 753c 85ee fb3d 82f2 df3d
00000130: f96f f63d 3c84 213d a776 603c e454 bf3c
00000140: 4d73 09bd 76df 53bd 446f 573a 79a9 b2bd
00000150: 4bcf b2bd 6619 e73d 19ca 6b3d 2169 1bbc
00000160: af05 5f3d 80c2 3e3d fd5a b1bc d455 3b3a
00000170: 7eb8 63bd aa12 aebd b171 b0bd d2bd ee3c
00000180: a145 8a3d 75cb 103e 4685 e33c b639 05bd
00000190: 1670 96bd 8992 17bc 0ae9 c03d 9c4b e3bd
000001a0: 6dc2 36bd 383b dfbb 0c09 153e d889 1b3d
000001b0: 3c75 eebd 14a4 7fbd 89e2 1fbc aac4 b33d
000001c0: 17c2 8fbc c9ae bb3d 939e 643d 2f11 e93b
000001d0: 817f 293d 0b10 fb3c 445f d9bd 55dc 063e
000001e0: 07c3 c3bd 0986 51bd 9340 c93d a19c e4bc
000001f0: 460f 9dbd 5f4c b93d 92ca 00bd 8430 2ebb
00000200: fb46 3f3d e607 a9bd 2c30 703d 7a6e 9b3c
00000210: 66e6 063c c3b5 f5bd 0e8d 7c3c 78e9 aebd
00000220: 4589 68bd e748 c6bd e278 babd e071 2dbd
00000230: bbda 0c3e 471e 19bd 6091 103e 4fcc 073e
00000240: 5cde 353d 5310 18bd 09e2 f0bc e1d0 6b3d
00000250: b40d 0b3d 5a5b 92bd 3db7 eb3d 9eab fa3c
00000260: 13c6 6abd 27b8 043e d490 cd3d 5656 cfbd
00000270: 0531 453c e287 d03d ae4a 523b 5848 633d
00000280: e343 9b3d 9be1 d8bd 18ab e23b 949a c53b
00000290: 78e9 0abd f32e 173e a265 073e ebb0 9fbc
000002a0: 1e77 94bd 9f53 cb3d 0613 e03d 4403 963d
000002b0: 8eba a23d dbba 843d c2b6 c63b ab2e ec3c
000002c0: 3ea2 813d f056 cdbd bb80 1ebc 710f 483d
000002d0: 3e8a 9abd 01bb c7bd 30a3 273d a5d4 0fbe
000002e0: d995 9a3d 43e5 b2bd 6cc9 423d b7c6 f03d
000002f0: 11a7 6d3c 426e 04bc d9ba 043e 0d7c 723c
00000300: 46e4 b0bd 4474 c43d 272b 93bd 25a9 b9bd
00000310: 1eae dcbc acf4 003e 7a24 d13c 764b c6bd
00000320: 181a 0a3d dbd5 ca3d 0695 b03c fb2f 58bd
00000330: 975a 113e 683f 80bd 84d4 0b3e 6f31 07be
00000340: 94c8 c8ba eaf3 b73d f170 32bd ced8 04bd
00000350: eccb 00be a671 96bd 438d e33c 4684 c73a
00000360: 91c0 af3d b5b6 1c3d 9c7c 98bd cff1 cf3c
00000370: 58dc 4d3d 365b a43d 8739 db3d a4c3 af38
00000380: 784d 11bd 36ee ab3d 2846 c63d 5f7e 753c
00000390: 8d80 98bd 0a0a ca3d eb1b 1b3e 47f9 a53d
000003a0: 6967 293d a544 c0bd db21 30bd 384c 19bd
000003b0: 0e3f a0bd a18a aebc ed99 16bc a991 4cbc
000003c0: 99e0 82bd 621c b7bd 75d7 943d d947 b53d
000003d0: e475 8f3d 2c14 1e3d 033f 90bc c75b 073e
000003e0: 6e6e 593d 00d1 283d ed24 09bd 8a0e 153d
000003f0: 4d4b ab3c 7c72 143e 253b b53c 0055 11bd
-0.03979527 0.053490132 -0.031953033 0.09038359 0.021660004 0.012096214 0.10452381 0.10546947
0.054389477 0.12925391 -0.042609066 -0.042758394 0.02705461 0.13046233 0.11628091 -0.12023255
-0.032865692 -0.047560517 0.10747243 0.14053442 -0.057565745 0.117839746 -0.092465036 0.010104264
-0.051758587 0.14507705 -0.020195652 0.04349043 0.040090263 0.040554028 0.120027825 0.045582753
0.061286114 0.047149386 -0.051836036 -0.075433135 -0.049665157 -0.051504582 -0.071960494 -0.042139944
0.029911423 -0.08511109 0.12284867 -0.08784183 -0.085366905 -0.038031418 0.015240158 0.14388072
-0.079190776 0.05464089 -0.02624008 0.100365065 0.016237682 0.11084429 -0.091448866 0.14241625
0.02217792 -0.077182494 0.08256269 -0.08435966 -0.009275213 -0.010904128 -0.033286233 0.0848047
-0.0962599 -0.013201132 -0.0373598 0.042427264 0.06426411 -0.05714739 0.10538853 -0.027027829
0.10679112 0.014985667 0.12301353 0.109349266 0.12033076 0.03943275 0.013700164 0.023355909
-0.033557225 -0.05172678 0.0008218179 -0.087237306 -0.08730944 0.11284141 0.057565782 -0.009485514
0.05444878 0.04657221 -0.021649832 0.0007146273 -0.055595867 -0.08499654 -0.08615435 0.029143248
0.06751562 0.14140113 0.02777351 -0.03252574 -0.073455974 -0.009251245 0.09419449 -0.11098406
-0.044619013 -0.0068124793 0.14554232 0.037973255 -0.116434544 -0.062412336 -0.0097586 0.08777745
-0.017548604 0.09164197 0.05581529 0.007112644 0.041381363 0.030647298 -0.106138736 0.13169987
-0.09558683 -0.051153217 0.0982677 -0.027906718 -0.07668929 0.0904777 -0.031443186 -0.002657921
0.04669855 -0.0825346 0.05863969 0.018973578 0.008233642 -0.11997559 0.015414489 -0.085406244
-0.056771535 -0.09681874 -0.09105088 -0.042344928 0.13755314 -0.03738239 0.14117956 0.13261531
0.04440151 -0.037124943 -0.029404657 0.05757225 0.033948615 -0.0714633 0.11509559 0.030599412
-0.057317805 0.12960874 0.100373894 -0.10123889 0.012035613 0.101821676 0.003208797 0.055488914
0.07581308 -0.10589906 0.0069173686 0.00603039 -0.03391406 0.14764003 0.13222364 -0.01949354
-0.07249282 0.09928059 0.109411284 0.073248416 0.07945739 0.06480952 0.006064267 0.028830847
0.06329773 -0.10026348 -0.009674246 0.04884285 -0.07545899 -0.09752465 0.040927112 -0.14045961
0.075481124 -0.087351345 0.047555372 0.11756652 0.014505164 -0.008082928 0.12961902 0.014800084
-0.0863729 0.095924884 -0.07185965 -0.09065465 -0.026938494 0.12593335 0.025530089 -0.09682362
0.03371629 0.09904071 0.021555435 -0.052780133 0.14194714 -0.06262094 0.13655287 -0.13202451
-0.0015318566 0.0898207 -0.04356474 -0.032433324 -0.1257779 -0.073458955 0.02777732 0.0015221916
0.08581651 0.03826018 -0.07445642 0.025383858 0.050258964 0.080252096 0.10704332 8.381091e-05
-0.03547427 0.083950445 0.0968135 0.0149837425 -0.07446394 0.09865196 0.15147369 0.081041865
0.041358385 -0.09388093 -0.043001037 -0.037426203 -0.07824527 -0.021306338 -0.009191972 -0.0124859
-0.06390495 -0.089409605 0.07267658 0.088515945 0.07004908 0.038593456 -0.017608171 0.13218604
0.05308383 0.041214943 -0.03348248 0.03639082 0.02090993 0.14496797 0.022122929 -0.035481453

fc.weight f4 [1, 64]
00000000: b78b f0bd 5ace efbd fba6 c63d bcaf e8bd
00000010: 8d10 fe3d 7c61 60bd 6e36 b2bd afa3 403d
00000020: 1388 3b3d 9210 da3d 69aa 07bc 9e12 df3c
00000030: ea31 b03c 939a 213d 814c 6f3d 13a8 1d3d
00000040: 66cb cd3d 6d21 a93d 09f5 d73d 75a3 9cbc
00000050: 907d 1c3c 8f6d 0e3e e851 bf3d 9e5a 153e
00000060: da67 06bd 6b7c e73d ab20 aabd dd76 0abe
00000070: 7f81 adbd c4eb d93d ad30 c4bd 0060 17bd
00000080: 035e b13c 57a5 4cbd bcd8 56bd cc14 e2bb
00000090: aacb b2bd 3758 3a3d 01d5 db3d 9560 133d
000000a0: dd71 90bd 8b86 cabd b114 913d de7f a73c
000000b0: 6c37 9d3d 18ae 4ebd 82c0 8a3b 2cf4 05be
000000c0: d062 b6bd 533e cf3d b729 f13d db40 c13d
000000d0: d41e 8dbc 7998 e93d 6ec5 843c c02b 5dbd
000000e0: 62c1 90bd 6950 abbd 917b 4cbd f3e0 ffbc
000000f0: c7c9 92ba 3591 d43c 7cdf aa3d 155b 5c3d
-0.117453985 -0.1170928 0.09699818 -0.11361644 0.124055006 -0.05478047 -0.08701788 0.0470311
0.045784067 0.10647692 -0.008280375 0.027230557 0.021508176 0.039454054 0.05842257 0.038490366
0.10048561 0.082583286 0.105447836 -0.019120911 0.009551421 0.13908981 0.09341794 0.14585349
-0.032813884 0.11303028 -0.08307012 -0.13521905 -0.08471965 0.10640672 -0.09579597 -0.036956787
0.021651274 -0.049962368 -0.052452788 -0.006899452 -0.08730252 0.045494284 0.10733987 0.03598078
-0.07052968 -0.09888943 0.07084025 0.020446714 0.076765865 -0.050458997 0.0042343745 -0.13081425
-0.08905566 0.10119309 0.117755346 0.09436198 -0.017226614 0.11406035 0.016207423 -0.0539968
-0.07068135 -0.083649464 -0.04992253 -0.031235194 -0.001119905 0.025948146 0.083434075 0.0537978
